ModelAuto(
  (conv1): Conv2d(1, 16, kernel_size=(3, 3), stride=(2, 2), padding=(1, 1))
  (conv2): Conv2d(16, 16, kernel_size=(3, 3), stride=(1, 1), padding=(1, 1))
  (bn11): BatchNorm2d(16, eps=1e-05, momentum=0.1, affine=True, track_running_stats=True)
  (bn12): BatchNorm2d(16, eps=1e-05, momentum=0.1, affine=True, track_running_stats=True)
  (conv3): Conv2d(16, 32, kernel_size=(3, 3), stride=(2, 2), padding=(1, 1))
  (conv4): Conv2d(32, 32, kernel_size=(3, 3), stride=(1, 1), padding=(1, 1))
  (bn21): BatchNorm2d(32, eps=1e-05, momentum=0.1, affine=True, track_running_stats=True)
  (bn22): BatchNorm2d(32, eps=1e-05, momentum=0.1, affine=True, track_running_stats=True)
  (conv5): Conv2d(32, 64, kernel_size=(3, 3), stride=(2, 2), padding=(1, 1))
  (conv6): Conv2d(64, 64, kernel_size=(3, 3), stride=(1, 1), padding=(1, 1))
  (bn31): BatchNorm2d(64, eps=1e-05, momentum=0.1, affine=True, track_running_stats=True)
  (bn32): BatchNorm2d(64, eps=1e-05, momentum=0.1, affine=True, track_running_stats=True)
  (dropout1): Dropout(p=0.3, inplace=False)
  (fc2): Linear(in_features=256, out_features=1, bias=True)
  (pool): MaxPool2d(kernel_size=2, stride=2, padding=0, dilation=1, ceil_mode=False)
)
r0: 0.05 - Mean: 0.05042087605968118 - Variance: 1.0436453113252331e-06 - Distribution: [70.8, 92.3, 100.0, 100.0]
r0: 0.06 - Mean: 0.06014580739662051 - Variance: 2.6919902875016077e-06 - Distribution: [44.3, 79.4, 99.8, 100.0]
r0: 0.07 - Mean: 0.07014531921595335 - Variance: 2.080394961393582e-06 - Distribution: [50.2, 84.4, 99.9, 100.0]
…
