ModelAutoP(
  (conv1): Conv2d(4, 16, kernel_size=(3, 3), stride=(1, 1), padding=(1, 1))
  (conv2): Conv2d(16, 16, kernel_size=(3, 3), stride=(1, 1), padding=(1, 1))
  (bn11): BatchNorm2d(16, eps=1e-05, momentum=0.1, affine=True, track_running_stats=True)
  (bn12): BatchNorm2d(16, eps=1e-05, momentum=0.1, affine=True, track_running_stats=True)
  (conv3): Conv2d(16, 32, kernel_size=(3, 3), stride=(1, 1), padding=(1, 1))
  (conv4): Conv2d(32, 32, kernel_size=(3, 3), stride=(1, 1), padding=(1, 1))
  (bn21): BatchNorm2d(32, eps=1e-05, momentum=0.1, affine=True, track_running_stats=True)
  (bn22): BatchNorm2d(32, eps=1e-05, momentum=0.1, affine=True, track_running_stats=True)
  (conv5): Conv2d(32, 64, kernel_size=(3, 3), stride=(1, 1), padding=(1, 1))
  (conv6): Conv2d(64, 64, kernel_size=(3, 3), stride=(1, 1), padding=(1, 1))
  (bn31): BatchNorm2d(64, eps=1e-05, momentum=0.1, affine=True, track_running_stats=True)
  (bn32): BatchNorm2d(64, eps=1e-05, momentum=0.1, affine=True, track_running_stats=True)
  (dropout1): Dropout(p=0.3, inplace=False)
  (fc2): Linear(in_features=1024, out_features=1, bias=True)
  (pool): MaxPool2d(kernel_size=2, stride=2, padding=0, dilation=1, ceil_mode=False)
)
r0: 0.05 - Mean: 0.04973488221466541 - Variance: 1.0628290671861266e-05 - Distribution: [21.48, 42.08, 87.85, 99.88]
r0: 0.06 - Mean: 0.057922571622207764 - Variance: 9.663019877294066e-06 - Distribution: [18.1, 36.0, 80.81, 99.79]
r0: 0.07 - Mean: 0.07077365459054709 - Variance: 1.1709677915494139e-05 - Distribution: [22.64, 43.35, 84.84, 99.51]
…
