# Autoencoder 12noise LR

308.80664
AutoEncoder(
  (conv1): Conv2d(1, 16, kernel_size=(3, 3), stride=(2, 2), padding=(1, 1))
  (bn1): BatchNorm2d(16, eps=1e-05, momentum=0.1, affine=True, track_running_stats=True)
  (conv2): Conv2d(16, 32, kernel_size=(3, 3), stride=(2, 2), padding=(1, 1))
  (bn2): BatchNorm2d(32, eps=1e-05, momentum=0.1, affine=True, track_running_stats=True)
  (conv3): Conv2d(32, 64, kernel_size=(3, 3), stride=(2, 2), padding=(1, 1))
  (bn3): BatchNorm2d(64, eps=1e-05, momentum=0.1, affine=True, track_running_stats=True)
  (conv4): Conv2d(64, 128, kernel_size=(3, 3), stride=(2, 2), padding=(1, 1))
  (bn4): BatchNorm2d(128, eps=1e-05, momentum=0.1, affine=True, track_running_stats=True)
  (deconv1): ConvTranspose2d(128, 64, kernel_size=(3, 3), stride=(2, 2), padding=(1, 1), output_padding=(1, 1))
  (bn5): BatchNorm2d(64, eps=1e-05, momentum=0.1, affine=True, track_running_stats=True)
  (dropout1): Dropout(p=0.3, inplace=False)
  (deconv2): ConvTranspose2d(64, 32, kernel_size=(3, 3), stride=(2, 2), padding=(1, 1), output_padding=(1, 1))
  (bn6): BatchNorm2d(32, eps=1e-05, momentum=0.1, affine=True, track_running_stats=True)
  (dropout2): Dropout(p=0.3, inplace=False)
  (deconv3): ConvTranspose2d(32, 16, kernel_size=(3, 3), stride=(2, 2), padding=(1, 1), output_padding=(1, 1))
  (bn7): BatchNorm2d(16, eps=1e-05, momentum=0.1, affine=True, track_running_stats=True)
  (dropout3): Dropout(p=0.3, inplace=False)
  (deconv4): ConvTranspose2d(16, 1, kernel_size=(3, 3), stride=(2, 2), padding=(1, 1), output_padding=(1, 1))
  (fc): Linear(in_features=16384, out_features=1, bias=True)
)
--
Experiment Parameters:
Loss Func: L1 - Closed/Open: Closed - Batch Size: 64 - Epochs: 300 - Learning Rate: 0.0001
--
Epoch [1/300] - 0.1029/0.0138/0.1030/0.0138
Epoch [2/300] - 0.0216/0.0115/0.0216/0.0115
Epoch [3/300] - 0.0103/0.0052/0.0103/0.0052
Epoch [4/300] - 0.0076/0.0091/0.0076/0.0091
Epoch [5/300] - 0.0067/0.0068/0.0067/0.0068
Epoch [6/300] - 0.0060/0.0053/0.0060/0.0053
…
