Model2(
  (conv1): Conv2d(1, 16, kernel_size=(3, 3), stride=(1, 1), padding=(1, 1))
  (bn1): BatchNorm2d(16, eps=1e-05, momentum=0.1, affine=True, track_running_stats=True)
  (conv3): Conv2d(16, 32, kernel_size=(3, 3), stride=(1, 1), padding=(1, 1))
  (bn2): BatchNorm2d(32, eps=1e-05, momentum=0.1, affine=True, track_running_stats=True)
  (conv5): Conv2d(32, 64, kernel_size=(3, 3), stride=(1, 1), padding=(1, 1))
  (bn3): BatchNorm2d(64, eps=1e-05, momentum=0.1, affine=True, track_running_stats=True)
  (dropout1): Dropout(p=0.1, inplace=False)
  (fc1): Linear(in_features=16384, out_features=1, bias=True)
  (fc2): Linear(in_features=256, out_features=1, bias=True)
  (pool): MaxPool2d(kernel_size=2, stride=2, padding=0, dilation=1, ceil_mode=False)
)
Epoch [1/300] - 0.9605/0.0420/0.9610/0.0420
Best Result: Epoch [1/300] - Val Loss: 0.0420, Val Error: 0.0420
Epoch [2/300] - 0.0240/0.0078/0.0240/0.0078
Best Result: Epoch [2/300] - Val Loss: 0.0078, Val Error: 0.0078
Epoch [3/300] - 0.0076/0.0052/0.0076/0.0052
Best Result: Epoch [3/300] - Val Loss: 0.0052, Val Error: 0.0052
…
Best Result: Epoch [270/300] - Val Loss: 0.0022, Val Error: 0.0022
Epoch [297/300] - 0.0023/0.0023/0.0023/0.0023
Best Result: Epoch [270/300] - Val Loss: 0.0022, Val Error: 0.0022
Epoch [298/300] - 0.0024/0.0030/0.0024/0.0030
Best Result: Epoch [270/300] - Val Loss: 0.0022, Val Error: 0.0022
Epoch [299/300] - 0.0212/0.0023/0.0212/0.0023
Best Result: Epoch [270/300] - Val Loss: 0.0022, Val Error: 0.0022
Epoch [300/300] - 0.0023/0.0024/0.0023/0.0024
Best Result: Epoch [270/300] - Val Loss: 0.0022, Val Error: 0.0022
Finished Training
Average error with expected test values: 0.002399524673819542
Model(
  (conv1): Conv2d(1, 16, kernel_size=(3, 3), stride=(1, 1), padding=(1, 1))
  (conv2): Conv2d(16, 16, kernel_size=(3, 3), stride=(1, 1), padding=(1, 1))
  (bn1): BatchNorm2d(16, eps=1e-05, momentum=0.1, affine=True, track_running_stats=True)
  (conv3): Conv2d(16, 32, kernel_size=(3, 3), stride=(1, 1), padding=(1, 1))
  (conv4): Conv2d(32, 32, kernel_size=(3, 3), stride=(1, 1), padding=(1, 1))
  (bn2): BatchNorm2d(32, eps=1e-05, momentum=0.1, affine=True, track_running_stats=True)
  (conv5): Conv2d(32, 64, kernel_size=(3, 3), stride=(1, 1), padding=(1, 1))
  (conv6): Conv2d(64, 64, kernel_size=(3, 3), stride=(1, 1), padding=(1, 1))
  (bn3): BatchNorm2d(64, eps=1e-05, momentum=0.1, affine=True, track_running_stats=True)
  (dropout1): Dropout(p=0.1, inplace=False)
  (fc1): Linear(in_features=32768, out_features=1, bias=True)
  (fc2): Linear(in_features=256, out_features=1, bias=True)
  (pool): MaxPool2d(kernel_size=2, stride=2, padding=0, dilation=1, ceil_mode=False)
)
Epoch [1/300] - 1.5276/0.2272/1.5281/0.2275
Best Result: Epoch [1/300] - Val Loss: 0.2272, Val Error: 0.2275
Epoch [2/300] - 0.1090/0.0144/0.1091/0.0144
Best Result: Epoch [2/300] - Val Loss: 0.0144, Val Error: 0.0144
Epoch [3/300] - 0.0084/0.0064/0.0084/0.0064
Best Result: Epoch [3/300] - Val Loss: 0.0064, Val Error: 0.0064
…
