1124599.2
ModelA3(
  (conv1): Conv2d(1, 16, kernel_size=(3, 3), stride=(1, 1), padding=(1, 1))
  (conv2): Conv2d(16, 16, kernel_size=(3, 3), stride=(1, 1), padding=(1, 1))
  (bn11): BatchNorm2d(16, eps=1e-05, momentum=0.1, affine=True, track_running_stats=True)
  (bn12): BatchNorm2d(16, eps=1e-05, momentum=0.1, affine=True, track_running_stats=True)
  (conv3): Conv2d(16, 32, kernel_size=(3, 3), stride=(1, 1), padding=(1, 1))
  (conv4): Conv2d(32, 32, kernel_size=(3, 3), stride=(1, 1), padding=(1, 1))
  (bn21): BatchNorm2d(32, eps=1e-05, momentum=0.1, affine=True, track_running_stats=True)
  (bn22): BatchNorm2d(32, eps=1e-05, momentum=0.1, affine=True, track_running_stats=True)
  (conv5): Conv2d(32, 64, kernel_size=(3, 3), stride=(1, 1), padding=(1, 1))
  (conv6): Conv2d(64, 64, kernel_size=(3, 3), stride=(1, 1), padding=(1, 1))
  (bn31): BatchNorm2d(64, eps=1e-05, momentum=0.1, affine=True, track_running_stats=True)
  (bn32): BatchNorm2d(64, eps=1e-05, momentum=0.1, affine=True, track_running_stats=True)
  (dropout1): Dropout(p=0.3, inplace=False)
  (fc1): Linear(in_features=16384, out_features=1, bias=True)
  (pool): MaxPool2d(kernel_size=2, stride=2, padding=0, dilation=1, ceil_mode=False)
)
--
Experiment Parameters:
Loss Func: L1 - Closed/Open: Closed - Batch Size: 256 - Epochs: 500 - Learning Rate: 5e-05
--
Epoch [1/500] - 0.2940/0.0738/0.2941/0.0738
Epoch [2/500] - 0.1773/0.0460/0.1773/0.0460
Epoch [3/500] - 0.1287/0.0548/0.1288/0.0548
Epoch [4/500] - 0.0951/0.0211/0.0952/0.0211
…
Epoch [492/500] - 0.0017/0.0029/0.0017/0.0029
Epoch [493/500] - 0.0018/0.0029/0.0018/0.0029
Epoch [494/500] - 0.0017/0.0045/0.0017/0.0045
Epoch [495/500] - 0.0018/0.0045/0.0018/0.0045
Epoch [496/500] - 0.0018/0.0020/0.0018/0.0020
Epoch [497/500] - 0.0018/0.0079/0.0018/0.0079
Epoch [498/500] - 0.0017/0.0019/0.0017/0.0019
Epoch [499/500] - 0.0017/0.0036/0.0017/0.0036
Epoch [500/500] - 0.0018/0.0018/0.0018/0.0018
--
Best Result: Epoch [380/500] - Val Loss: 0.0017, Val Error: 0.0017
--
Finished Training
Training completed in 25052.57 seconds.
Average error with expected test values: 0.0017480837414041162
ModelAuto(
  (conv1): Conv2d(1, 16, kernel_size=(3, 3), stride=(2, 2), padding=(1, 1))
  (conv2): Conv2d(16, 16, kernel_size=(3, 3), stride=(1, 1), padding=(1, 1))
  (bn11): BatchNorm2d(16, eps=1e-05, momentum=0.1, affine=True, track_running_stats=True)
  (bn12): BatchNorm2d(16, eps=1e-05, momentum=0.1, affine=True, track_running_stats=True)
  (conv3): Conv2d(16, 32, kernel_size=(3, 3), stride=(2, 2), padding=(1, 1))
  (conv4): Conv2d(32, 32, kernel_size=(3, 3), stride=(1, 1), padding=(1, 1))
  (bn21): BatchNorm2d(32, eps=1e-05, momentum=0.1, affine=True, track_running_stats=True)
  (bn22): BatchNorm2d(32, eps=1e-05, momentum=0.1, affine=True, track_running_stats=True)
  (conv5): Conv2d(32, 64, kernel_size=(3, 3), stride=(2, 2), padding=(1, 1))
  (conv6): Conv2d(64, 64, kernel_size=(3, 3), stride=(1, 1), padding=(1, 1))
  (bn31): BatchNorm2d(64, eps=1e-05, momentum=0.1, affine=True, track_running_stats=True)
  (bn32): BatchNorm2d(64, eps=1e-05, momentum=0.1, affine=True, track_running_stats=True)
  (dropout1): Dropout(p=0.3, inplace=False)
  (fc2): Linear(in_features=256, out_features=1, bias=True)
  (pool): MaxPool2d(kernel_size=2, stride=2, padding=0, dilation=1, ceil_mode=False)
)
--
Experiment Parameters:
Loss Func: L1 - Closed/Open: Closed - Batch Size: 256 - Epochs: 500 - Learning Rate: 5e-05
--
Epoch [1/500] - 0.2967/0.0575/0.2968/0.0575
Epoch [2/500] - 0.1387/0.0259/0.1387/0.0259
Epoch [3/500] - 0.0693/0.0146/0.0693/0.0146
Epoch [4/500] - 0.0248/0.0075/0.0248/0.0075
…
