# 3co 

1162616.9
ModelA(
  (conv1): Conv2d(1, 16, kernel_size=(3, 3), stride=(1, 1), padding=(1, 1))
  (conv2): Conv2d(16, 16, kernel_size=(3, 3), stride=(1, 1), padding=(1, 1))
  (bn11): BatchNorm2d(16, eps=1e-05, momentum=0.1, affine=True, track_running_stats=True)
  (bn12): BatchNorm2d(16, eps=1e-05, momentum=0.1, affine=True, track_running_stats=True)
  (conv3): Conv2d(16, 32, kernel_size=(3, 3), stride=(1, 1), padding=(1, 1))
  (conv4): Conv2d(32, 32, kernel_size=(3, 3), stride=(1, 1), padding=(1, 1))
  (bn21): BatchNorm2d(32, eps=1e-05, momentum=0.1, affine=True, track_running_stats=True)
  (bn22): BatchNorm2d(32, eps=1e-05, momentum=0.1, affine=True, track_running_stats=True)
  (conv5): Conv2d(32, 64, kernel_size=(3, 3), stride=(1, 1), padding=(1, 1))
  (conv6): Conv2d(64, 64, kernel_size=(3, 3), stride=(1, 1), padding=(1, 1))
  (bn31): BatchNorm2d(64, eps=1e-05, momentum=0.1, affine=True, track_running_stats=True)
  (bn32): BatchNorm2d(64, eps=1e-05, momentum=0.1, affine=True, track_running_stats=True)
  (dropout1): Dropout(p=0.1, inplace=False)
  (fc1): Linear(in_features=16384, out_features=1, bias=True)
  (fc2): Linear(in_features=256, out_features=1, bias=True)
  (pool): MaxPool2d(kernel_size=2, stride=2, padding=0, dilation=1, ceil_mode=False)
)
--
Experiment Parameters:
Loss Func: L1 - Closed/Open: Closed - Batch Size: 64 - Epochs: 300 - Learning Rate: 0.002
--
Epoch [1/300] - 0.1179/0.0120/0.1179/0.0120
Epoch [2/300] - 0.0060/0.0169/0.0060/0.0169
Epoch [3/300] - 0.0052/0.0080/0.0052/0.0080
Epoch [4/300] - 0.0046/0.0204/0.0046/0.0204
…
Epoch [291/300] - 0.0027/0.0022/0.0027/0.0022
Epoch [292/300] - 0.0027/0.0114/0.0027/0.0114
Epoch [293/300] - 0.0027/0.0139/0.0027/0.0139
Epoch [294/300] - 0.0027/0.0194/0.0027/0.0194
Epoch [295/300] - 0.0027/0.0030/0.0027/0.0030
Epoch [296/300] - 0.0027/0.0095/0.0027/0.0095
Epoch [297/300] - 0.0027/0.0113/0.0027/0.0113
Epoch [298/300] - 0.0027/0.0079/0.0027/0.0079
Epoch [299/300] - 0.0027/0.0081/0.0027/0.0081
Epoch [300/300] - 0.0027/0.0070/0.0027/0.0070
--
Best Result: Epoch [233/300] - Val Loss: 0.0017, Val Error: 0.0017
--
Finished Training
Average error with expected test values: 0.0017357048345729709
ModelE(
  (conv1): Conv2d(1, 64, kernel_size=(3, 3), stride=(1, 1), padding=(1, 1))
  (conv2): Conv2d(64, 64, kernel_size=(3, 3), stride=(1, 1), padding=(1, 1))
  (bn11): BatchNorm2d(64, eps=1e-05, momentum=0.1, affine=True, track_running_stats=True)
  (bn12): BatchNorm2d(64, eps=1e-05, momentum=0.1, affine=True, track_running_stats=True)
  (conv3): Conv2d(64, 128, kernel_size=(3, 3), stride=(1, 1), padding=(1, 1))
  (conv4): Conv2d(128, 128, kernel_size=(3, 3), stride=(1, 1), padding=(1, 1))
  (bn21): BatchNorm2d(128, eps=1e-05, momentum=0.1, affine=True, track_running_stats=True)
  (bn22): BatchNorm2d(128, eps=1e-05, momentum=0.1, affine=True, track_running_stats=True)
  (conv5): Conv2d(128, 256, kernel_size=(3, 3), stride=(1, 1), padding=(1, 1))
  (conv6): Conv2d(256, 256, kernel_size=(3, 3), stride=(1, 1), padding=(1, 1))
  (bn31): BatchNorm2d(256, eps=1e-05, momentum=0.1, affine=True, track_running_stats=True)
  (bn32): BatchNorm2d(256, eps=1e-05, momentum=0.1, affine=True, track_running_stats=True)
  (dropout1): Dropout(p=0.3, inplace=False)
  (fc1): Linear(in_features=65536, out_features=1, bias=True)
  (fc2): Linear(in_features=256, out_features=1, bias=True)
  (pool): MaxPool2d(kernel_size=2, stride=2, padding=0, dilation=1, ceil_mode=False)
)
--
Experiment Parameters:
Loss Func: L1 - Closed/Open: Closed - Batch Size: 64 - Epochs: 300 - Learning Rate: 0.002
--
Epoch [1/300] - 0.4570/0.0076/0.4570/0.0076
Epoch [2/300] - 0.0070/0.0043/0.0070/0.0043
Epoch [3/300] - 0.0064/0.0039/0.0064/0.0039
Epoch [4/300] - 0.0059/0.0053/0.0059/0.0053
…
Epoch [291/300] - 0.0029/0.0030/0.0029/0.0030
Epoch [292/300] - 0.0029/0.0030/0.0029/0.0030
Epoch [293/300] - 0.0029/0.0036/0.0029/0.0036
Epoch [294/300] - 0.0030/0.0072/0.0030/0.0072
Epoch [295/300] - 0.0029/0.0029/0.0029/0.0029
Epoch [296/300] - 0.0029/0.0028/0.0029/0.0028
Epoch [297/300] - 0.0030/0.0024/0.0030/0.0024
Epoch [298/300] - 0.0029/0.0017/0.0029/0.0017
Epoch [299/300] - 0.0029/0.0044/0.0029/0.0044
Epoch [300/300] - 0.0029/0.0030/0.0029/0.0030
--
Best Result: Epoch [298/300] - Val Loss: 0.0017, Val Error: 0.0017
--
Finished Training
Average error with expected test values: 0.0017307413509115577
ModelD(
  (conv1): Conv2d(1, 16, kernel_size=(3, 3), stride=(1, 1), padding=(1, 1))
  (conv2): Conv2d(16, 16, kernel_size=(3, 3), stride=(1, 1), padding=(1, 1))
  (bn11): BatchNorm2d(16, eps=1e-05, momentum=0.1, affine=True, track_running_stats=True)
  (bn12): BatchNorm2d(16, eps=1e-05, momentum=0.1, affine=True, track_running_stats=True)
  (conv3): Conv2d(16, 32, kernel_size=(3, 3), stride=(1, 1), padding=(1, 1))
  (conv4): Conv2d(32, 32, kernel_size=(3, 3), stride=(1, 1), padding=(1, 1))
  (bn21): BatchNorm2d(32, eps=1e-05, momentum=0.1, affine=True, track_running_stats=True)
  (bn22): BatchNorm2d(32, eps=1e-05, momentum=0.1, affine=True, track_running_stats=True)
  (conv5): Conv2d(32, 64, kernel_size=(3, 3), stride=(1, 1), padding=(1, 1))
  (conv6): Conv2d(64, 64, kernel_size=(3, 3), stride=(1, 1), padding=(1, 1))
  (bn31): BatchNorm2d(64, eps=1e-05, momentum=0.1, affine=True, track_running_stats=True)
  (bn32): BatchNorm2d(64, eps=1e-05, momentum=0.1, affine=True, track_running_stats=True)
  (conv7): Conv2d(64, 128, kernel_size=(3, 3), stride=(1, 1), padding=(1, 1))
  (conv8): Conv2d(128, 128, kernel_size=(3, 3), stride=(1, 1), padding=(1, 1))
  (bn41): BatchNorm2d(128, eps=1e-05, momentum=0.1, affine=True, track_running_stats=True)
  (bn42): BatchNorm2d(128, eps=1e-05, momentum=0.1, affine=True, track_running_stats=True)
  (dropout1): Dropout(p=0.3, inplace=False)
  (fc1): Linear(in_features=8192, out_features=1, bias=True)
  (fc2): Linear(in_features=256, out_features=1, bias=True)
  (pool): MaxPool2d(kernel_size=2, stride=2, padding=0, dilation=1, ceil_mode=False)
)
--
Experiment Parameters:
Loss Func: L1 - Closed/Open: Closed - Batch Size: 64 - Epochs: 300 - Learning Rate: 0.002
--
Epoch [1/300] - 0.0515/0.0057/0.0515/0.0057
Epoch [2/300] - 0.0070/0.0054/0.0070/0.0054
Epoch [3/300] - 0.0061/0.0078/0.0061/0.0078
Epoch [4/300] - 0.0054/0.0031/0.0054/0.0031
…
