# Model Loss Func

Model(
  (conv1): Conv2d(1, 16, kernel_size=(3, 3), stride=(1, 1), padding=(1, 1))
  (conv2): Conv2d(16, 16, kernel_size=(3, 3), stride=(1, 1), padding=(1, 1))
  (bn1): BatchNorm2d(16, eps=1e-05, momentum=0.1, affine=True, track_running_stats=True)
  (conv3): Conv2d(16, 32, kernel_size=(3, 3), stride=(1, 1), padding=(1, 1))
  (conv4): Conv2d(32, 32, kernel_size=(3, 3), stride=(1, 1), padding=(1, 1))
  (bn2): BatchNorm2d(32, eps=1e-05, momentum=0.1, affine=True, track_running_stats=True)
  (conv5): Conv2d(32, 64, kernel_size=(3, 3), stride=(1, 1), padding=(1, 1))
  (conv6): Conv2d(64, 64, kernel_size=(3, 3), stride=(1, 1), padding=(1, 1))
  (bn3): BatchNorm2d(64, eps=1e-05, momentum=0.1, affine=True, track_running_stats=True)
  (dropout1): Dropout(p=0.1, inplace=False)
  (fc1): Linear(in_features=16384, out_features=1, bias=True)
  (fc2): Linear(in_features=256, out_features=1, bias=True)
  (pool): MaxPool2d(kernel_size=2, stride=2, padding=0, dilation=1, ceil_mode=False)
)
--
Experiment Parameters:
Loss Func: L1 - Closed/Open: Closed - Batch Size: 64 - Epochs: 300 - Learning Rate: 0.002
--
Epoch [1/300] - 0.4455/0.0416/0.4455/0.0416
Epoch [2/300] - 0.0207/0.0065/0.0207/0.0065
Epoch [3/300] - 0.0070/0.0044/0.0070/0.0044
Epoch [4/300] - 0.0060/0.0047/0.0060/0.0047
…
Epoch [291/300] - 0.0014/0.0002/0.0121/0.0102
Epoch [292/300] - 0.0001/0.0000/0.0070/0.0045
Epoch [293/300] - 0.0000/0.0000/0.0045/0.0042
Epoch [294/300] - 0.0000/0.0000/0.0036/0.0031
Epoch [295/300] - 0.0000/0.0000/0.0032/0.0052
Epoch [296/300] - 0.0003/0.0002/0.0040/0.0129
Epoch [297/300] - 0.0002/0.0000/0.0048/0.0030
Epoch [298/300] - 0.0000/0.0000/0.0028/0.0027
Epoch [299/300] - 0.0000/0.0000/0.0028/0.0032
Epoch [300/300] - 0.0000/0.0000/0.0030/0.0027
--
Best Result: Epoch [192/300] - Val Loss: 0.0000, Val Error: 0.0024
--
Finished Training
Average error with expected test values: 0.0023783810902386904
Model2(
  (conv1): Conv2d(1, 16, kernel_size=(3, 3), stride=(1, 1), padding=(1, 1))
  (bn1): BatchNorm2d(16, eps=1e-05, momentum=0.1, affine=True, track_running_stats=True)
  (conv3): Conv2d(16, 32, kernel_size=(3, 3), stride=(1, 1), padding=(1, 1))
  (bn2): BatchNorm2d(32, eps=1e-05, momentum=0.1, affine=True, track_running_stats=True)
  (conv5): Conv2d(32, 64, kernel_size=(3, 3), stride=(1, 1), padding=(1, 1))
  (bn3): BatchNorm2d(64, eps=1e-05, momentum=0.1, affine=True, track_running_stats=True)
  (dropout1): Dropout(p=0.1, inplace=False)
  (fc1): Linear(in_features=16384, out_features=1, bias=True)
  (fc2): Linear(in_features=256, out_features=1, bias=True)
  (pool): MaxPool2d(kernel_size=2, stride=2, padding=0, dilation=1, ceil_mode=False)
)
--
Experiment Parameters:
Loss Func: L1 - Closed/Open: Closed - Batch Size: 64 - Epochs: 300 - Learning Rate: 0.002
--
Epoch [1/300] - 0.8322/0.0996/0.8322/0.0996
Epoch [2/300] - 0.1035/0.0231/0.1035/0.0231
Epoch [3/300] - 0.0077/0.0046/0.0077/0.0046
Epoch [4/300] - 0.0050/0.0049/0.0050/0.0049
…
