# Bench SHWFS Mag 3 Open

1162616.9
ModelA(
  (conv1): Conv2d(1, 16, kernel_size=(3, 3), stride=(1, 1), padding=(1, 1))
  (conv2): Conv2d(16, 16, kernel_size=(3, 3), stride=(1, 1), padding=(1, 1))
  (bn11): BatchNorm2d(16, eps=1e-05, momentum=0.1, affine=True, track_running_stats=True)
  (bn12): BatchNorm2d(16, eps=1e-05, momentum=0.1, affine=True, track_running_stats=True)
  (conv3): Conv2d(16, 32, kernel_size=(3, 3), stride=(1, 1), padding=(1, 1))
  (conv4): Conv2d(32, 32, kernel_size=(3, 3), stride=(1, 1), padding=(1, 1))
  (bn21): BatchNorm2d(32, eps=1e-05, momentum=0.1, affine=True, track_running_stats=True)
  (bn22): BatchNorm2d(32, eps=1e-05, momentum=0.1, affine=True, track_running_stats=True)
  (conv5): Conv2d(32, 64, kernel_size=(3, 3), stride=(1, 1), padding=(1, 1))
  (conv6): Conv2d(64, 64, kernel_size=(3, 3), stride=(1, 1), padding=(1, 1))
  (bn31): BatchNorm2d(64, eps=1e-05, momentum=0.1, affine=True, track_running_stats=True)
  (bn32): BatchNorm2d(64, eps=1e-05, momentum=0.1, affine=True, track_running_stats=True)
  (dropout1): Dropout(p=0.1, inplace=False)
  (fc1): Linear(in_features=16384, out_features=1, bias=True)
  (fc2): Linear(in_features=256, out_features=1, bias=True)
  (pool): MaxPool2d(kernel_size=2, stride=2, padding=0, dilation=1, ceil_mode=False)
)
--
Experiment Parameters:
Loss Func: L1 - Closed/Open: Open - Batch Size: 64 - Epochs: 300 - Learning Rate: 0.002
--
Epoch [1/300] - 0.3439/0.0400/0.3439/0.0400
Epoch [2/300] - 0.0148/0.0066/0.0148/0.0066
Epoch [3/300] - 0.0061/0.0055/0.0061/0.0055
Epoch [4/300] - 0.0057/0.0170/0.0057/0.0170
…
Epoch [291/300] - 0.0032/0.0072/0.0032/0.0072
Epoch [292/300] - 0.0032/0.0088/0.0032/0.0088
Epoch [293/300] - 0.0032/0.0038/0.0032/0.0038
Epoch [294/300] - 0.0032/0.0039/0.0032/0.0039
Epoch [295/300] - 0.0032/0.0257/0.0032/0.0257
Epoch [296/300] - 0.0032/0.0052/0.0032/0.0052
Epoch [297/300] - 0.0032/0.0059/0.0032/0.0059
Epoch [298/300] - 0.0032/0.0092/0.0032/0.0092
Epoch [299/300] - 0.0032/0.0041/0.0032/0.0041
Epoch [300/300] - 0.0032/0.0215/0.0032/0.0215
--
Best Result: Epoch [215/300] - Val Loss: 0.0021, Val Error: 0.0021
--
Finished Training
Average error with expected test values: 0.002105318009853363
ModelE(
  (conv1): Conv2d(1, 64, kernel_size=(3, 3), stride=(1, 1), padding=(1, 1))
  (conv2): Conv2d(64, 64, kernel_size=(3, 3), stride=(1, 1), padding=(1, 1))
  (bn11): BatchNorm2d(64, eps=1e-05, momentum=0.1, affine=True, track_running_stats=True)
  (bn12): BatchNorm2d(64, eps=1e-05, momentum=0.1, affine=True, track_running_stats=True)
  (conv3): Conv2d(64, 128, kernel_size=(3, 3), stride=(1, 1), padding=(1, 1))
  (conv4): Conv2d(128, 128, kernel_size=(3, 3), stride=(1, 1), padding=(1, 1))
  (bn21): BatchNorm2d(128, eps=1e-05, momentum=0.1, affine=True, track_running_stats=True)
  (bn22): BatchNorm2d(128, eps=1e-05, momentum=0.1, affine=True, track_running_stats=True)
  (conv5): Conv2d(128, 256, kernel_size=(3, 3), stride=(1, 1), padding=(1, 1))
  (conv6): Conv2d(256, 256, kernel_size=(3, 3), stride=(1, 1), padding=(1, 1))
  (bn31): BatchNorm2d(256, eps=1e-05, momentum=0.1, affine=True, track_running_stats=True)
  (bn32): BatchNorm2d(256, eps=1e-05, momentum=0.1, affine=True, track_running_stats=True)
  (dropout1): Dropout(p=0.3, inplace=False)
  (fc1): Linear(in_features=65536, out_features=1, bias=True)
  (fc2): Linear(in_features=256, out_features=1, bias=True)
  (pool): MaxPool2d(kernel_size=2, stride=2, padding=0, dilation=1, ceil_mode=False)
)
--
Experiment Parameters:
Loss Func: L1 - Closed/Open: Open - Batch Size: 64 - Epochs: 300 - Learning Rate: 0.002
--
Epoch [1/300] - 0.9867/0.0076/0.9867/0.0076
Epoch [2/300] - 0.0073/0.0056/0.0073/0.0056
Epoch [3/300] - 0.0066/0.0120/0.0066/0.0120
Epoch [4/300] - 0.0064/0.0127/0.0064/0.0127
…
Epoch [291/300] - 0.0026/0.0031/0.0026/0.0031
Epoch [292/300] - 0.0026/0.0036/0.0026/0.0036
Epoch [293/300] - 0.0026/0.0023/0.0026/0.0023
Epoch [294/300] - 0.0026/0.0105/0.0026/0.0105
Epoch [295/300] - 0.0026/0.0070/0.0026/0.0070
Epoch [296/300] - 0.0026/0.0021/0.0026/0.0021
Epoch [297/300] - 0.0026/0.0104/0.0026/0.0104
Epoch [298/300] - 0.0026/0.0038/0.0026/0.0038
Epoch [299/300] - 0.0026/0.0085/0.0026/0.0085
Epoch [300/300] - 0.0026/0.0047/0.0026/0.0047
--
Best Result: Epoch [282/300] - Val Loss: 0.0016, Val Error: 0.0016
--
Finished Training
Average error with expected test values: 0.0016101626679301262
ModelD(
  (conv1): Conv2d(1, 16, kernel_size=(3, 3), stride=(1, 1), padding=(1, 1))
  (conv2): Conv2d(16, 16, kernel_size=(3, 3), stride=(1, 1), padding=(1, 1))
  (bn11): BatchNorm2d(16, eps=1e-05, momentum=0.1, affine=True, track_running_stats=True)
  (bn12): BatchNorm2d(16, eps=1e-05, momentum=0.1, affine=True, track_running_stats=True)
  (conv3): Conv2d(16, 32, kernel_size=(3, 3), stride=(1, 1), padding=(1, 1))
  (conv4): Conv2d(32, 32, kernel_size=(3, 3), stride=(1, 1), padding=(1, 1))
  (bn21): BatchNorm2d(32, eps=1e-05, momentum=0.1, affine=True, track_running_stats=True)
  (bn22): BatchNorm2d(32, eps=1e-05, momentum=0.1, affine=True, track_running_stats=True)
  (conv5): Conv2d(32, 64, kernel_size=(3, 3), stride=(1, 1), padding=(1, 1))
  (conv6): Conv2d(64, 64, kernel_size=(3, 3), stride=(1, 1), padding=(1, 1))
  (bn31): BatchNorm2d(64, eps=1e-05, momentum=0.1, affine=True, track_running_stats=True)
  (bn32): BatchNorm2d(64, eps=1e-05, momentum=0.1, affine=True, track_running_stats=True)
  (conv7): Conv2d(64, 128, kernel_size=(3, 3), stride=(1, 1), padding=(1, 1))
  (conv8): Conv2d(128, 128, kernel_size=(3, 3), stride=(1, 1), padding=(1, 1))
  (bn41): BatchNorm2d(128, eps=1e-05, momentum=0.1, affine=True, track_running_stats=True)
  (bn42): BatchNorm2d(128, eps=1e-05, momentum=0.1, affine=True, track_running_stats=True)
  (dropout1): Dropout(p=0.3, inplace=False)
  (fc1): Linear(in_features=8192, out_features=1, bias=True)
  (fc2): Linear(in_features=256, out_features=1, bias=True)
  (pool): MaxPool2d(kernel_size=2, stride=2, padding=0, dilation=1, ceil_mode=False)
)
--
Experiment Parameters:
Loss Func: L1 - Closed/Open: Open - Batch Size: 64 - Epochs: 300 - Learning Rate: 0.002
--
Epoch [1/300] - 0.1120/0.0042/0.1120/0.0042
Epoch [2/300] - 0.0072/0.0047/0.0072/0.0047
Epoch [3/300] - 0.0068/0.0034/0.0068/0.0034
Epoch [4/300] - 0.0063/0.0087/0.0063/0.0087
…
