# First filter Size
# Though increasing filter sizes results in a slight increase in performance it is 1.5x more difficult to Train
# LR is better when 0.002 than 0.004

1124599.2
ModelAuto(
  (conv1): Conv2d(1, 16, kernel_size=(3, 3), stride=(2, 2), padding=(1, 1))
  (conv2): Conv2d(16, 16, kernel_size=(3, 3), stride=(1, 1), padding=(1, 1))
  (bn11): BatchNorm2d(16, eps=1e-05, momentum=0.1, affine=True, track_running_stats=True)
  (bn12): BatchNorm2d(16, eps=1e-05, momentum=0.1, affine=True, track_running_stats=True)
  (conv3): Conv2d(16, 32, kernel_size=(3, 3), stride=(2, 2), padding=(1, 1))
  (conv4): Conv2d(32, 32, kernel_size=(3, 3), stride=(1, 1), padding=(1, 1))
  (bn21): BatchNorm2d(32, eps=1e-05, momentum=0.1, affine=True, track_running_stats=True)
  (bn22): BatchNorm2d(32, eps=1e-05, momentum=0.1, affine=True, track_running_stats=True)
  (conv5): Conv2d(32, 64, kernel_size=(3, 3), stride=(2, 2), padding=(1, 1))
  (conv6): Conv2d(64, 64, kernel_size=(3, 3), stride=(1, 1), padding=(1, 1))
  (bn31): BatchNorm2d(64, eps=1e-05, momentum=0.1, affine=True, track_running_stats=True)
  (bn32): BatchNorm2d(64, eps=1e-05, momentum=0.1, affine=True, track_running_stats=True)
  (dropout1): Dropout(p=0.3, inplace=False)
  (fc2): Linear(in_features=256, out_features=1, bias=True)
  (pool): MaxPool2d(kernel_size=2, stride=2, padding=0, dilation=1, ceil_mode=False)
)
--
Experiment Parameters:
Loss Func: L1 - Closed/Open: Closed - Batch Size: 64 - Epochs: 300 - Learning Rate: 0.002
--
Epoch [1/300] - 0.0218/0.0046/0.0218/0.0046
Epoch [2/300] - 0.0064/0.0038/0.0064/0.0038
Epoch [3/300] - 0.0060/0.0090/0.0060/0.0090
Epoch [4/300] - 0.0060/0.0073/0.0060/0.0073
…
Epoch [292/300] - 0.0043/0.0042/0.0043/0.0042
Epoch [293/300] - 0.0043/0.0055/0.0043/0.0055
Epoch [294/300] - 0.0043/0.0022/0.0043/0.0022
Epoch [295/300] - 0.0043/0.0065/0.0043/0.0065
Epoch [296/300] - 0.0042/0.0030/0.0042/0.0030
Epoch [297/300] - 0.0043/0.0071/0.0043/0.0071
Epoch [298/300] - 0.0043/0.0018/0.0043/0.0018
Epoch [299/300] - 0.0042/0.0058/0.0042/0.0058
Epoch [300/300] - 0.0043/0.0023/0.0043/0.0023
--
Best Result: Epoch [156/300] - Val Loss: 0.0016, Val Error: 0.0016
--
Finished Training
Training completed in 4359.51 seconds.
Average error with expected test values: 0.0016173956682905555
ModelAuto2(
  (conv1): Conv2d(1, 32, kernel_size=(3, 3), stride=(2, 2), padding=(1, 1))
  (conv2): Conv2d(32, 32, kernel_size=(3, 3), stride=(1, 1), padding=(1, 1))
  (bn11): BatchNorm2d(32, eps=1e-05, momentum=0.1, affine=True, track_running_stats=True)
  (bn12): BatchNorm2d(32, eps=1e-05, momentum=0.1, affine=True, track_running_stats=True)
  (conv3): Conv2d(32, 64, kernel_size=(3, 3), stride=(2, 2), padding=(1, 1))
  (conv4): Conv2d(64, 64, kernel_size=(3, 3), stride=(1, 1), padding=(1, 1))
  (bn21): BatchNorm2d(64, eps=1e-05, momentum=0.1, affine=True, track_running_stats=True)
  (bn22): BatchNorm2d(64, eps=1e-05, momentum=0.1, affine=True, track_running_stats=True)
  (conv5): Conv2d(64, 128, kernel_size=(3, 3), stride=(2, 2), padding=(1, 1))
  (conv6): Conv2d(128, 128, kernel_size=(3, 3), stride=(1, 1), padding=(1, 1))
  (bn31): BatchNorm2d(128, eps=1e-05, momentum=0.1, affine=True, track_running_stats=True)
  (bn32): BatchNorm2d(128, eps=1e-05, momentum=0.1, affine=True, track_running_stats=True)
  (dropout1): Dropout(p=0.3, inplace=False)
  (fc2): Linear(in_features=512, out_features=1, bias=True)
  (pool): MaxPool2d(kernel_size=2, stride=2, padding=0, dilation=1, ceil_mode=False)
)
--
Experiment Parameters:
Loss Func: L1 - Closed/Open: Closed - Batch Size: 64 - Epochs: 300 - Learning Rate: 0.002
--
Epoch [1/300] - 0.0355/0.0047/0.0355/0.0047
Epoch [2/300] - 0.0069/0.0040/0.0069/0.0040
Epoch [3/300] - 0.0061/0.0064/0.0061/0.0064
Epoch [4/300] - 0.0057/0.0347/0.0057/0.0347
…
