# Testing narrowing NN (encoder network)

1124599.2
ModelAuto(
  (conv1): Conv2d(1, 16, kernel_size=(3, 3), stride=(2, 2), padding=(1, 1))
  (conv2): Conv2d(16, 16, kernel_size=(3, 3), stride=(1, 1), padding=(1, 1))
  (bn11): BatchNorm2d(16, eps=1e-05, momentum=0.1, affine=True, track_running_stats=True)
  (bn12): BatchNorm2d(16, eps=1e-05, momentum=0.1, affine=True, track_running_stats=True)
  (conv3): Conv2d(16, 32, kernel_size=(3, 3), stride=(2, 2), padding=(1, 1))
  (conv4): Conv2d(32, 32, kernel_size=(3, 3), stride=(1, 1), padding=(1, 1))
  (bn21): BatchNorm2d(32, eps=1e-05, momentum=0.1, affine=True, track_running_stats=True)
  (bn22): BatchNorm2d(32, eps=1e-05, momentum=0.1, affine=True, track_running_stats=True)
  (conv5): Conv2d(32, 64, kernel_size=(3, 3), stride=(2, 2), padding=(1, 1))
  (conv6): Conv2d(64, 64, kernel_size=(3, 3), stride=(1, 1), padding=(1, 1))
  (bn31): BatchNorm2d(64, eps=1e-05, momentum=0.1, affine=True, track_running_stats=True)
  (bn32): BatchNorm2d(64, eps=1e-05, momentum=0.1, affine=True, track_running_stats=True)
  (dropout1): Dropout(p=0.3, inplace=False)
  (fc2): Linear(in_features=256, out_features=1, bias=True)
  (pool): MaxPool2d(kernel_size=2, stride=2, padding=0, dilation=1, ceil_mode=False)
)
--
Experiment Parameters:
Loss Func: L1 - Closed/Open: Closed - Batch Size: 64 - Epochs: 300 - Learning Rate: 0.001
--
Epoch [1/300] - 0.0319/0.0051/0.0319/0.0051
Epoch [2/300] - 0.0071/0.0036/0.0071/0.0036
Epoch [3/300] - 0.0058/0.0075/0.0058/0.0075
Epoch [4/300] - 0.0053/0.0036/0.0053/0.0036
…
Epoch [291/300] - 0.0032/0.0039/0.0032/0.0039
Epoch [292/300] - 0.0032/0.0022/0.0032/0.0022
Epoch [293/300] - 0.0032/0.0040/0.0032/0.0040
Epoch [294/300] - 0.0032/0.0075/0.0032/0.0075
Epoch [295/300] - 0.0033/0.0014/0.0033/0.0014
Epoch [296/300] - 0.0032/0.0048/0.0032/0.0048
Epoch [297/300] - 0.0032/0.0083/0.0032/0.0083
Epoch [298/300] - 0.0033/0.0021/0.0033/0.0021
Epoch [299/300] - 0.0032/0.0040/0.0032/0.0040
Epoch [300/300] - 0.0032/0.0032/0.0032/0.0032
--
Best Result: Epoch [295/300] - Val Loss: 0.0014, Val Error: 0.0014
--
Finished Training
Average error with expected test values: 0.0014172056689858437
AutoEncoder1(
  (conv1): Conv2d(1, 16, kernel_size=(3, 3), stride=(2, 2), padding=(1, 1))
  (bn1): BatchNorm2d(16, eps=1e-05, momentum=0.1, affine=True, track_running_stats=True)
  (conv2): Conv2d(16, 32, kernel_size=(3, 3), stride=(2, 2), padding=(1, 1))
  (bn2): BatchNorm2d(32, eps=1e-05, momentum=0.1, affine=True, track_running_stats=True)
  (conv3): Conv2d(32, 64, kernel_size=(3, 3), stride=(2, 2), padding=(1, 1))
  (bn3): BatchNorm2d(64, eps=1e-05, momentum=0.1, affine=True, track_running_stats=True)
  (conv4): Conv2d(64, 128, kernel_size=(3, 3), stride=(2, 2), padding=(1, 1))
  (bn4): BatchNorm2d(128, eps=1e-05, momentum=0.1, affine=True, track_running_stats=True)
  (fc): Linear(in_features=8192, out_features=1, bias=True)
)
--
Experiment Parameters:
Loss Func: L1 - Closed/Open: Closed - Batch Size: 64 - Epochs: 300 - Learning Rate: 0.001
--
Epoch [1/300] - 0.0917/0.0606/0.0917/0.0606
Epoch [2/300] - 0.0144/0.0066/0.0144/0.0066
Epoch [3/300] - 0.0056/0.0058/0.0056/0.0058
Epoch [4/300] - 0.0045/0.0132/0.0045/0.0132
Epoch [5/300] - 0.0040/0.0056/0.0040/0.0056
Epoch [6/300] - 0.0038/0.0028/0.0038/0.0028
…
