# First Filter Size

1124599.2
ModelA3(
  (conv1): Conv2d(1, 16, kernel_size=(3, 3), stride=(1, 1), padding=(1, 1))
  (conv2): Conv2d(16, 16, kernel_size=(3, 3), stride=(1, 1), padding=(1, 1))
  (bn11): BatchNorm2d(16, eps=1e-05, momentum=0.1, affine=True, track_running_stats=True)
  (bn12): BatchNorm2d(16, eps=1e-05, momentum=0.1, affine=True, track_running_stats=True)
  (conv3): Conv2d(16, 32, kernel_size=(3, 3), stride=(1, 1), padding=(1, 1))
  (conv4): Conv2d(32, 32, kernel_size=(3, 3), stride=(1, 1), padding=(1, 1))
  (bn21): BatchNorm2d(32, eps=1e-05, momentum=0.1, affine=True, track_running_stats=True)
  (bn22): BatchNorm2d(32, eps=1e-05, momentum=0.1, affine=True, track_running_stats=True)
  (conv5): Conv2d(32, 64, kernel_size=(3, 3), stride=(1, 1), padding=(1, 1))
  (conv6): Conv2d(64, 64, kernel_size=(3, 3), stride=(1, 1), padding=(1, 1))
  (bn31): BatchNorm2d(64, eps=1e-05, momentum=0.1, affine=True, track_running_stats=True)
  (bn32): BatchNorm2d(64, eps=1e-05, momentum=0.1, affine=True, track_running_stats=True)
  (dropout1): Dropout(p=0.3, inplace=False)
  (fc1): Linear(in_features=16384, out_features=1, bias=True)
  (fc2): Linear(in_features=256, out_features=1, bias=True)
  (pool): MaxPool2d(kernel_size=2, stride=2, padding=0, dilation=1, ceil_mode=False)
)
--
Experiment Parameters:
Loss Func: L1 - Closed/Open: Closed - Batch Size: 64 - Epochs: 300 - Learning Rate: 0.002
--
Epoch [1/300] - 0.2352/0.0043/0.2352/0.0043
Epoch [2/300] - 0.0055/0.0056/0.0055/0.0056
Epoch [3/300] - 0.0055/0.0097/0.0055/0.0097
Epoch [4/300] - 0.0056/0.0075/0.0056/0.0075
…
Epoch [291/300] - 0.0032/0.0235/0.0032/0.0235
Epoch [292/300] - 0.0031/0.0088/0.0031/0.0088
Epoch [293/300] - 0.0032/0.0088/0.0032/0.0088
Epoch [294/300] - 0.0032/0.0104/0.0032/0.0104
Epoch [295/300] - 0.0032/0.0167/0.0032/0.0167
Epoch [296/300] - 0.0032/0.0131/0.0032/0.0131
Epoch [297/300] - 0.0031/0.0216/0.0031/0.0216
Epoch [298/300] - 0.0031/0.0124/0.0031/0.0124
Epoch [299/300] - 0.0031/0.0140/0.0031/0.0140
Epoch [300/300] - 0.0032/0.0183/0.0032/0.0183
--
Best Result: Epoch [235/300] - Val Loss: 0.0018, Val Error: 0.0018
--
Finished Training
Average error with expected test values: 0.0018062087474390864
ModelC4(
  (conv1): Conv2d(1, 4, kernel_size=(3, 3), stride=(1, 1), padding=(1, 1))
  (conv2): Conv2d(4, 16, kernel_size=(3, 3), stride=(1, 1), padding=(1, 1))
  (bn11): BatchNorm2d(4, eps=1e-05, momentum=0.1, affine=True, track_running_stats=True)
  (bn12): BatchNorm2d(16, eps=1e-05, momentum=0.1, affine=True, track_running_stats=True)
  (conv3): Conv2d(16, 32, kernel_size=(3, 3), stride=(1, 1), padding=(1, 1))
  (conv4): Conv2d(32, 32, kernel_size=(3, 3), stride=(1, 1), padding=(1, 1))
  (bn21): BatchNorm2d(32, eps=1e-05, momentum=0.1, affine=True, track_running_stats=True)
  (bn22): BatchNorm2d(32, eps=1e-05, momentum=0.1, affine=True, track_running_stats=True)
  (conv5): Conv2d(32, 64, kernel_size=(3, 3), stride=(1, 1), padding=(1, 1))
  (conv6): Conv2d(64, 64, kernel_size=(3, 3), stride=(1, 1), padding=(1, 1))
  (bn31): BatchNorm2d(64, eps=1e-05, momentum=0.1, affine=True, track_running_stats=True)
  (bn32): BatchNorm2d(64, eps=1e-05, momentum=0.1, affine=True, track_running_stats=True)
  (dropout1): Dropout(p=0.3, inplace=False)
  (fc1): Linear(in_features=16384, out_features=1, bias=True)
  (fc2): Linear(in_features=256, out_features=1, bias=True)
  (pool): MaxPool2d(kernel_size=2, stride=2, padding=0, dilation=1, ceil_mode=False)
)
--
Experiment Parameters:
Loss Func: L1 - Closed/Open: Closed - Batch Size: 64 - Epochs: 300 - Learning Rate: 0.002
--
Epoch [1/300] - 0.2005/0.0072/0.2005/0.0072
Epoch [2/300] - 0.0073/0.0097/0.0073/0.0097
Epoch [3/300] - 0.0074/0.0062/0.0074/0.0062
Epoch [4/300] - 0.0074/0.0099/0.0074/0.0099
…
Epoch [291/300] - 0.0032/0.0064/0.0032/0.0064
Epoch [292/300] - 0.0032/0.0245/0.0032/0.0245
Epoch [293/300] - 0.0032/0.0138/0.0032/0.0138
Epoch [294/300] - 0.0032/0.0105/0.0032/0.0105
Epoch [295/300] - 0.0032/0.0035/0.0032/0.0035
Epoch [296/300] - 0.0031/0.0123/0.0031/0.0123
Epoch [297/300] - 0.0032/0.0221/0.0032/0.0221
Epoch [298/300] - 0.0031/0.0324/0.0031/0.0324
Epoch [299/300] - 0.0032/0.0361/0.0032/0.0361
Epoch [300/300] - 0.0032/0.0300/0.0032/0.0300
--
Best Result: Epoch [66/300] - Val Loss: 0.0021, Val Error: 0.0021
--
Finished Training
Average error with expected test values: 0.002149993320927024
ModelC8(
  (conv1): Conv2d(1, 8, kernel_size=(3, 3), stride=(1, 1), padding=(1, 1))
  (conv2): Conv2d(8, 16, kernel_size=(3, 3), stride=(1, 1), padding=(1, 1))
  (bn11): BatchNorm2d(8, eps=1e-05, momentum=0.1, affine=True, track_running_stats=True)
  (bn12): BatchNorm2d(16, eps=1e-05, momentum=0.1, affine=True, track_running_stats=True)
  (conv3): Conv2d(16, 32, kernel_size=(3, 3), stride=(1, 1), padding=(1, 1))
  (conv4): Conv2d(32, 32, kernel_size=(3, 3), stride=(1, 1), padding=(1, 1))
  (bn21): BatchNorm2d(32, eps=1e-05, momentum=0.1, affine=True, track_running_stats=True)
  (bn22): BatchNorm2d(32, eps=1e-05, momentum=0.1, affine=True, track_running_stats=True)
  (conv5): Conv2d(32, 64, kernel_size=(3, 3), stride=(1, 1), padding=(1, 1))
  (conv6): Conv2d(64, 64, kernel_size=(3, 3), stride=(1, 1), padding=(1, 1))
  (bn31): BatchNorm2d(64, eps=1e-05, momentum=0.1, affine=True, track_running_stats=True)
  (bn32): BatchNorm2d(64, eps=1e-05, momentum=0.1, affine=True, track_running_stats=True)
  (dropout1): Dropout(p=0.3, inplace=False)
  (fc1): Linear(in_features=16384, out_features=1, bias=True)
  (fc2): Linear(in_features=256, out_features=1, bias=True)
  (pool): MaxPool2d(kernel_size=2, stride=2, padding=0, dilation=1, ceil_mode=False)
)
--
Experiment Parameters:
Loss Func: L1 - Closed/Open: Closed - Batch Size: 64 - Epochs: 300 - Learning Rate: 0.002
--
Epoch [1/300] - 0.1968/0.0067/0.1968/0.0067
Epoch [2/300] - 0.0064/0.0060/0.0064/0.0060
Epoch [3/300] - 0.0051/0.0153/0.0051/0.0153
Epoch [4/300] - 0.0050/0.0178/0.0050/0.0178
…
Epoch [291/300] - 0.0032/0.0064/0.0032/0.0064
Epoch [292/300] - 0.0032/0.0166/0.0032/0.0166
Epoch [293/300] - 0.0032/0.0156/0.0032/0.0156
Epoch [294/300] - 0.0032/0.0215/0.0032/0.0215
Epoch [295/300] - 0.0032/0.0172/0.0032/0.0172
Epoch [296/300] - 0.0032/0.0090/0.0032/0.0090
Epoch [297/300] - 0.0032/0.0021/0.0032/0.0021
Epoch [298/300] - 0.0033/0.0145/0.0033/0.0145
Epoch [299/300] - 0.0032/0.0124/0.0032/0.0124
Epoch [300/300] - 0.0033/0.0202/0.0033/0.0202
--
Best Result: Epoch [297/300] - Val Loss: 0.0021, Val Error: 0.0021
--
Finished Training
Average error with expected test values: 0.0021193046122789383
ModelC(
  (conv1): Conv2d(1, 32, kernel_size=(3, 3), stride=(1, 1), padding=(1, 1))
  (conv2): Conv2d(32, 32, kernel_size=(3, 3), stride=(1, 1), padding=(1, 1))
  (bn11): BatchNorm2d(32, eps=1e-05, momentum=0.1, affine=True, track_running_stats=True)
  (bn12): BatchNorm2d(32, eps=1e-05, momentum=0.1, affine=True, track_running_stats=True)
  (conv3): Conv2d(32, 64, kernel_size=(3, 3), stride=(1, 1), padding=(1, 1))
  (conv4): Conv2d(64, 64, kernel_size=(3, 3), stride=(1, 1), padding=(1, 1))
  (bn21): BatchNorm2d(64, eps=1e-05, momentum=0.1, affine=True, track_running_stats=True)
  (bn22): BatchNorm2d(64, eps=1e-05, momentum=0.1, affine=True, track_running_stats=True)
  (conv5): Conv2d(64, 128, kernel_size=(3, 3), stride=(1, 1), padding=(1, 1))
  (conv6): Conv2d(128, 128, kernel_size=(3, 3), stride=(1, 1), padding=(1, 1))
  (bn31): BatchNorm2d(128, eps=1e-05, momentum=0.1, affine=True, track_running_stats=True)
  (bn32): BatchNorm2d(128, eps=1e-05, momentum=0.1, affine=True, track_running_stats=True)
  (dropout1): Dropout(p=0.3, inplace=False)
  (fc1): Linear(in_features=32768, out_features=1, bias=True)
  (fc2): Linear(in_features=256, out_features=1, bias=True)
  (pool): MaxPool2d(kernel_size=2, stride=2, padding=0, dilation=1, ceil_mode=False)
)
--
Experiment Parameters:
Loss Func: L1 - Closed/Open: Closed - Batch Size: 64 - Epochs: 300 - Learning Rate: 0.002
--
Epoch [1/300] - 0.4778/0.0046/0.4778/0.0046
Epoch [2/300] - 0.0058/0.0068/0.0058/0.0068
Epoch [3/300] - 0.0053/0.0039/0.0053/0.0039
Epoch [4/300] - 0.0052/0.0217/0.0052/0.0217
…
