# Validated batchnorm effectiveness, dropout=0.1 with 0.0013 acc 

1124599.2
ModelAuto1(
  (conv1): Conv2d(1, 16, kernel_size=(3, 3), stride=(2, 2), padding=(1, 1))
  (conv2): Conv2d(16, 16, kernel_size=(3, 3), stride=(1, 1), padding=(1, 1))
  (bn11): BatchNorm2d(16, eps=1e-05, momentum=0.1, affine=True, track_running_stats=True)
  (bn12): BatchNorm2d(16, eps=1e-05, momentum=0.1, affine=True, track_running_stats=True)
  (conv3): Conv2d(16, 32, kernel_size=(3, 3), stride=(2, 2), padding=(1, 1))
  (conv4): Conv2d(32, 32, kernel_size=(3, 3), stride=(1, 1), padding=(1, 1))
  (bn21): BatchNorm2d(32, eps=1e-05, momentum=0.1, affine=True, track_running_stats=True)
  (bn22): BatchNorm2d(32, eps=1e-05, momentum=0.1, affine=True, track_running_stats=True)
  (conv5): Conv2d(32, 64, kernel_size=(3, 3), stride=(2, 2), padding=(1, 1))
  (conv6): Conv2d(64, 64, kernel_size=(3, 3), stride=(1, 1), padding=(1, 1))
  (bn31): BatchNorm2d(64, eps=1e-05, momentum=0.1, affine=True, track_running_stats=True)
  (bn32): BatchNorm2d(64, eps=1e-05, momentum=0.1, affine=True, track_running_stats=True)
  (dropout1): Dropout(p=0.1, inplace=False)
  (fc2): Linear(in_features=256, out_features=1, bias=True)
  (pool): MaxPool2d(kernel_size=2, stride=2, padding=0, dilation=1, ceil_mode=False)
)
--
Experiment Parameters:
Loss Func: L1 - Closed/Open: Closed - Batch Size: 64 - Epochs: 300 - Learning Rate: 0.002
--
Epoch [1/300] - 0.0231/0.0040/0.0231/0.0040
Epoch [2/300] - 0.0063/0.0073/0.0063/0.0073
Epoch [3/300] - 0.0054/0.0156/0.0054/0.0156
Epoch [4/300] - 0.0051/0.0217/0.0051/0.0217
…
Epoch [292/300] - 0.0032/0.0084/0.0032/0.0084
Epoch [293/300] - 0.0033/0.0082/0.0033/0.0082
Epoch [294/300] - 0.0033/0.0044/0.0033/0.0044
Epoch [295/300] - 0.0033/0.0061/0.0033/0.0061
Epoch [296/300] - 0.0033/0.0065/0.0033/0.0065
Epoch [297/300] - 0.0032/0.0079/0.0032/0.0079
Epoch [298/300] - 0.0033/0.0051/0.0033/0.0051
Epoch [299/300] - 0.0033/0.0016/0.0033/0.0016
Epoch [300/300] - 0.0033/0.0028/0.0033/0.0028
--
Best Result: Epoch [267/300] - Val Loss: 0.0014, Val Error: 0.0014
--
Finished Training
Training completed in 4311.46 seconds.
Average error with expected test values: 0.0014450878370553255
ModelAuto1nb(
  (conv1): Conv2d(1, 16, kernel_size=(3, 3), stride=(2, 2), padding=(1, 1))
  (conv2): Conv2d(16, 16, kernel_size=(3, 3), stride=(1, 1), padding=(1, 1))
  (conv3): Conv2d(16, 32, kernel_size=(3, 3), stride=(2, 2), padding=(1, 1))
  (conv4): Conv2d(32, 32, kernel_size=(3, 3), stride=(1, 1), padding=(1, 1))
  (conv5): Conv2d(32, 64, kernel_size=(3, 3), stride=(2, 2), padding=(1, 1))
  (conv6): Conv2d(64, 64, kernel_size=(3, 3), stride=(1, 1), padding=(1, 1))
  (dropout1): Dropout(p=0.1, inplace=False)
  (fc2): Linear(in_features=256, out_features=1, bias=True)
  (pool): MaxPool2d(kernel_size=2, stride=2, padding=0, dilation=1, ceil_mode=False)
)
--
Experiment Parameters:
Loss Func: L1 - Closed/Open: Closed - Batch Size: 64 - Epochs: 300 - Learning Rate: 0.002
--
Epoch [1/300] - 0.0065/0.0056/0.0065/0.0056
Epoch [2/300] - 0.0045/0.0041/0.0045/0.0041
Epoch [3/300] - 0.0044/0.0041/0.0044/0.0041
Epoch [4/300] - 0.0043/0.0037/0.0043/0.0037
…
