# mag 10-12
# larger model performs better again. hypothesis: more information to be captured.


1757.3783
ModelA3(
  (conv1): Conv2d(1, 16, kernel_size=(3, 3), stride=(1, 1), padding=(1, 1))
  (conv2): Conv2d(16, 16, kernel_size=(3, 3), stride=(1, 1), padding=(1, 1))
  (bn11): BatchNorm2d(16, eps=1e-05, momentum=0.1, affine=True, track_running_stats=True)
  (bn12): BatchNorm2d(16, eps=1e-05, momentum=0.1, affine=True, track_running_stats=True)
  (conv3): Conv2d(16, 32, kernel_size=(3, 3), stride=(1, 1), padding=(1, 1))
  (conv4): Conv2d(32, 32, kernel_size=(3, 3), stride=(1, 1), padding=(1, 1))
  (bn21): BatchNorm2d(32, eps=1e-05, momentum=0.1, affine=True, track_running_stats=True)
  (bn22): BatchNorm2d(32, eps=1e-05, momentum=0.1, affine=True, track_running_stats=True)
  (conv5): Conv2d(32, 64, kernel_size=(3, 3), stride=(1, 1), padding=(1, 1))
  (conv6): Conv2d(64, 64, kernel_size=(3, 3), stride=(1, 1), padding=(1, 1))
  (bn31): BatchNorm2d(64, eps=1e-05, momentum=0.1, affine=True, track_running_stats=True)
  (bn32): BatchNorm2d(64, eps=1e-05, momentum=0.1, affine=True, track_running_stats=True)
  (dropout1): Dropout(p=0.3, inplace=False)
  (fc1): Linear(in_features=16384, out_features=1, bias=True)
  (fc2): Linear(in_features=256, out_features=1, bias=True)
  (pool): MaxPool2d(kernel_size=2, stride=2, padding=0, dilation=1, ceil_mode=False)
)
--
Experiment Parameters:
Loss Func: L1 - Closed/Open: Closed - Batch Size: 64 - Epochs: 300 - Learning Rate: 0.002
--
Epoch [1/300] - 0.3474/0.0166/0.3475/0.0166
Epoch [2/300] - 0.0096/0.0142/0.0096/0.0142
Epoch [3/300] - 0.0090/0.0084/0.0090/0.0084
Epoch [4/300] - 0.0084/0.0105/0.0084/0.0105
…
Epoch [291/300] - 0.0028/0.0090/0.0028/0.0090
Epoch [292/300] - 0.0028/0.0095/0.0028/0.0095
Epoch [293/300] - 0.0028/0.0053/0.0028/0.0053
Epoch [294/300] - 0.0028/0.0201/0.0028/0.0201
Epoch [295/300] - 0.0028/0.0229/0.0028/0.0229
Epoch [296/300] - 0.0028/0.0235/0.0028/0.0235
Epoch [297/300] - 0.0028/0.0058/0.0028/0.0058
Epoch [298/300] - 0.0028/0.0082/0.0028/0.0082
Epoch [299/300] - 0.0028/0.0119/0.0028/0.0119
Epoch [300/300] - 0.0028/0.0071/0.0028/0.0071
--
Best Result: Epoch [279/300] - Val Loss: 0.0030, Val Error: 0.0030
--
Finished Training
Average error with expected test values: 0.0029641720466315746
ModelE(
  (conv1): Conv2d(1, 64, kernel_size=(3, 3), stride=(1, 1), padding=(1, 1))
  (conv2): Conv2d(64, 64, kernel_size=(3, 3), stride=(1, 1), padding=(1, 1))
  (bn11): BatchNorm2d(64, eps=1e-05, momentum=0.1, affine=True, track_running_stats=True)
  (bn12): BatchNorm2d(64, eps=1e-05, momentum=0.1, affine=True, track_running_stats=True)
  (conv3): Conv2d(64, 128, kernel_size=(3, 3), stride=(1, 1), padding=(1, 1))
  (conv4): Conv2d(128, 128, kernel_size=(3, 3), stride=(1, 1), padding=(1, 1))
  (bn21): BatchNorm2d(128, eps=1e-05, momentum=0.1, affine=True, track_running_stats=True)
  (bn22): BatchNorm2d(128, eps=1e-05, momentum=0.1, affine=True, track_running_stats=True)
  (conv5): Conv2d(128, 256, kernel_size=(3, 3), stride=(1, 1), padding=(1, 1))
  (conv6): Conv2d(256, 256, kernel_size=(3, 3), stride=(1, 1), padding=(1, 1))
  (bn31): BatchNorm2d(256, eps=1e-05, momentum=0.1, affine=True, track_running_stats=True)
  (bn32): BatchNorm2d(256, eps=1e-05, momentum=0.1, affine=True, track_running_stats=True)
  (dropout1): Dropout(p=0.3, inplace=False)
  (fc1): Linear(in_features=65536, out_features=1, bias=True)
  (fc2): Linear(in_features=256, out_features=1, bias=True)
  (pool): MaxPool2d(kernel_size=2, stride=2, padding=0, dilation=1, ceil_mode=False)
)
--
Experiment Parameters:
Loss Func: L1 - Closed/Open: Closed - Batch Size: 64 - Epochs: 300 - Learning Rate: 0.002
--
Epoch [1/300] - 0.7903/0.0154/0.7904/0.0154
Epoch [2/300] - 0.0099/0.0069/0.0099/0.0069
Epoch [3/300] - 0.0090/0.0139/0.0090/0.0139
Epoch [4/300] - 0.0082/0.0100/0.0082/0.0100
…
Epoch [291/300] - 0.0029/0.0096/0.0029/0.0096
Epoch [292/300] - 0.0029/0.0298/0.0029/0.0298
Epoch [293/300] - 0.0030/0.0069/0.0030/0.0069
Epoch [294/300] - 0.0029/0.0311/0.0029/0.0311
Epoch [295/300] - 0.0029/0.0110/0.0029/0.0110
Epoch [296/300] - 0.0029/0.0256/0.0029/0.0256
Epoch [297/300] - 0.0030/0.0259/0.0030/0.0259
Epoch [298/300] - 0.0029/0.0113/0.0029/0.0113
Epoch [299/300] - 0.0029/0.0025/0.0029/0.0025
Epoch [300/300] - 0.0029/0.0104/0.0029/0.0104
--
Best Result: Epoch [231/300] - Val Loss: 0.0024, Val Error: 0.0024
--
Finished Training
Average error with expected test values: 0.0023658396676182747
ModelD(
  (conv1): Conv2d(1, 16, kernel_size=(3, 3), stride=(1, 1), padding=(1, 1))
  (conv2): Conv2d(16, 16, kernel_size=(3, 3), stride=(1, 1), padding=(1, 1))
  (bn11): BatchNorm2d(16, eps=1e-05, momentum=0.1, affine=True, track_running_stats=True)
  (bn12): BatchNorm2d(16, eps=1e-05, momentum=0.1, affine=True, track_running_stats=True)
  (conv3): Conv2d(16, 32, kernel_size=(3, 3), stride=(1, 1), padding=(1, 1))
  (conv4): Conv2d(32, 32, kernel_size=(3, 3), stride=(1, 1), padding=(1, 1))
  (bn21): BatchNorm2d(32, eps=1e-05, momentum=0.1, affine=True, track_running_stats=True)
  (bn22): BatchNorm2d(32, eps=1e-05, momentum=0.1, affine=True, track_running_stats=True)
  (conv5): Conv2d(32, 64, kernel_size=(3, 3), stride=(1, 1), padding=(1, 1))
  (conv6): Conv2d(64, 64, kernel_size=(3, 3), stride=(1, 1), padding=(1, 1))
  (bn31): BatchNorm2d(64, eps=1e-05, momentum=0.1, affine=True, track_running_stats=True)
  (bn32): BatchNorm2d(64, eps=1e-05, momentum=0.1, affine=True, track_running_stats=True)
  (conv7): Conv2d(64, 128, kernel_size=(3, 3), stride=(1, 1), padding=(1, 1))
  (conv8): Conv2d(128, 128, kernel_size=(3, 3), stride=(1, 1), padding=(1, 1))
  (bn41): BatchNorm2d(128, eps=1e-05, momentum=0.1, affine=True, track_running_stats=True)
  (bn42): BatchNorm2d(128, eps=1e-05, momentum=0.1, affine=True, track_running_stats=True)
  (dropout1): Dropout(p=0.3, inplace=False)
  (fc1): Linear(in_features=8192, out_features=1, bias=True)
  (fc2): Linear(in_features=256, out_features=1, bias=True)
  (pool): MaxPool2d(kernel_size=2, stride=2, padding=0, dilation=1, ceil_mode=False)
)
--
Experiment Parameters:
Loss Func: L1 - Closed/Open: Closed - Batch Size: 64 - Epochs: 300 - Learning Rate: 0.002
--
Epoch [1/300] - 0.1354/0.0057/0.1354/0.0057
Epoch [2/300] - 0.0084/0.0104/0.0084/0.0104
Epoch [3/300] - 0.0077/0.0148/0.0077/0.0148
Epoch [4/300] - 0.0073/0.0180/0.0073/0.0180
…
