Model2(
  (conv1): Conv2d(1, 16, kernel_size=(3, 3), stride=(1, 1), padding=(1, 1))
  (bn1): BatchNorm2d(16, eps=1e-05, momentum=0.1, affine=True, track_running_stats=True)
  (conv3): Conv2d(16, 32, kernel_size=(3, 3), stride=(1, 1), padding=(1, 1))
  (bn2): BatchNorm2d(32, eps=1e-05, momentum=0.1, affine=True, track_running_stats=True)
  (conv5): Conv2d(32, 64, kernel_size=(3, 3), stride=(1, 1), padding=(1, 1))
  (bn3): BatchNorm2d(64, eps=1e-05, momentum=0.1, affine=True, track_running_stats=True)
  (dropout1): Dropout(p=0.1, inplace=False)
  (fc1): Linear(in_features=16384, out_features=1, bias=True)
  (fc2): Linear(in_features=256, out_features=1, bias=True)
  (pool): MaxPool2d(kernel_size=2, stride=2, padding=0, dilation=1, ceil_mode=False)
)
--
Experiment Parameters:
Closed/Open: Open - Batch Size: 128 - Epochs: 300 - Learning Rate: 0.004
--
Epoch [1/300] - 0.9842/0.0074/0.9847/0.0073
Epoch [2/300] - 0.0053/0.0045/0.0053/0.0045
Epoch [3/300] - 0.0045/0.0040/0.0045/0.0040
Epoch [4/300] - 0.0044/0.0040/0.0044/0.0040
…
Epoch [291/300] - 0.0200/0.0022/0.0200/0.0022
Epoch [292/300] - 0.0023/0.0029/0.0023/0.0029
Epoch [293/300] - 0.0024/0.0026/0.0024/0.0026
Epoch [294/300] - 0.0338/0.0032/0.0339/0.0032
Epoch [295/300] - 0.0023/0.0023/0.0023/0.0023
Epoch [296/300] - 0.0023/0.0027/0.0023/0.0027
Epoch [297/300] - 0.0024/0.0025/0.0024/0.0025
Epoch [298/300] - 0.0129/0.0023/0.0129/0.0023
Epoch [299/300] - 0.0023/0.0022/0.0023/0.0022
Epoch [300/300] - 0.0030/0.0032/0.0030/0.0032
--
Best Result: Epoch [299/300] - Val Loss: 0.0022, Val Error: 0.0022
--
Finished Training
Average error with expected test values: 0.0021889035124331713
Model(
  (conv1): Conv2d(1, 16, kernel_size=(3, 3), stride=(1, 1), padding=(1, 1))
  (conv2): Conv2d(16, 16, kernel_size=(3, 3), stride=(1, 1), padding=(1, 1))
  (bn1): BatchNorm2d(16, eps=1e-05, momentum=0.1, affine=True, track_running_stats=True)
  (conv3): Conv2d(16, 32, kernel_size=(3, 3), stride=(1, 1), padding=(1, 1))
  (conv4): Conv2d(32, 32, kernel_size=(3, 3), stride=(1, 1), padding=(1, 1))
  (bn2): BatchNorm2d(32, eps=1e-05, momentum=0.1, affine=True, track_running_stats=True)
  (conv5): Conv2d(32, 64, kernel_size=(3, 3), stride=(1, 1), padding=(1, 1))
  (conv6): Conv2d(64, 64, kernel_size=(3, 3), stride=(1, 1), padding=(1, 1))
  (bn3): BatchNorm2d(64, eps=1e-05, momentum=0.1, affine=True, track_running_stats=True)
  (dropout1): Dropout(p=0.1, inplace=False)
  (fc1): Linear(in_features=32768, out_features=1, bias=True)
  (fc2): Linear(in_features=256, out_features=1, bias=True)
  (pool): MaxPool2d(kernel_size=2, stride=2, padding=0, dilation=1, ceil_mode=False)
)
--
Experiment Parameters:
Closed/Open: Open - Batch Size: 128 - Epochs: 300 - Learning Rate: 0.004
--
Epoch [1/300] - 2.5475/0.4226/2.5486/0.4231
Epoch [2/300] - 0.1750/0.0346/0.1751/0.0345
Epoch [3/300] - 0.0223/0.0153/0.0223/0.0153
Epoch [4/300] - 0.0158/0.0334/0.0158/0.0333
…
