# Base model (mag 3)

ModelA(
  (conv1): Conv2d(1, 16, kernel_size=(3, 3), stride=(1, 1), padding=(1, 1))
  (conv2): Conv2d(16, 16, kernel_size=(3, 3), stride=(1, 1), padding=(1, 1))
  (bn11): BatchNorm2d(16, eps=1e-05, momentum=0.1, affine=True, track_running_stats=True)
  (bn12): BatchNorm2d(16, eps=1e-05, momentum=0.1, affine=True, track_running_stats=True)
  (conv3): Conv2d(16, 32, kernel_size=(3, 3), stride=(1, 1), padding=(1, 1))
  (conv4): Conv2d(32, 32, kernel_size=(3, 3), stride=(1, 1), padding=(1, 1))
  (bn21): BatchNorm2d(32, eps=1e-05, momentum=0.1, affine=True, track_running_stats=True)
  (bn22): BatchNorm2d(32, eps=1e-05, momentum=0.1, affine=True, track_running_stats=True)
  (conv5): Conv2d(32, 64, kernel_size=(3, 3), stride=(1, 1), padding=(1, 1))
  (conv6): Conv2d(64, 64, kernel_size=(3, 3), stride=(1, 1), padding=(1, 1))
  (bn31): BatchNorm2d(64, eps=1e-05, momentum=0.1, affine=True, track_running_stats=True)
  (bn32): BatchNorm2d(64, eps=1e-05, momentum=0.1, affine=True, track_running_stats=True)
  (dropout1): Dropout(p=0.1, inplace=False)
  (fc1): Linear(in_features=16384, out_features=1, bias=True)
  (fc2): Linear(in_features=256, out_features=1, bias=True)
  (pool): MaxPool2d(kernel_size=2, stride=2, padding=0, dilation=1, ceil_mode=False)
)
--
Experiment Parameters:
Loss Func: L1 - Closed/Open: Closed - Batch Size: 64 - Epochs: 300 - Learning Rate: 0.002
--
Epoch [1/300] - 0.2067/0.0092/0.2067/0.0092
Epoch [2/300] - 0.0052/0.0176/0.0052/0.0176
Epoch [3/300] - 0.0085/0.0043/0.0085/0.0043
Epoch [4/300] - 0.0064/0.0050/0.0064/0.0050
…
Epoch [291/300] - 0.0022/0.0123/0.0022/0.0123
Epoch [292/300] - 0.0022/0.0039/0.0022/0.0039
Epoch [293/300] - 0.0022/0.0204/0.0022/0.0204
Epoch [294/300] - 0.0022/0.0157/0.0022/0.0157
Epoch [295/300] - 0.0022/0.0062/0.0022/0.0062
Epoch [296/300] - 0.0022/0.0247/0.0022/0.0247
Epoch [297/300] - 0.0022/0.0055/0.0022/0.0055
Epoch [298/300] - 0.0022/0.0128/0.0022/0.0128
Epoch [299/300] - 0.0022/0.0031/0.0022/0.0031
Epoch [300/300] - 0.0022/0.0186/0.0022/0.0186
--
Best Result: Epoch [243/300] - Val Loss: 0.0018, Val Error: 0.0018
--
Finished Training
Average error with expected test values: 0.001765778404660523
Model(
  (conv1): Conv2d(1, 16, kernel_size=(3, 3), stride=(1, 1), padding=(1, 1))
  (conv2): Conv2d(16, 16, kernel_size=(3, 3), stride=(1, 1), padding=(1, 1))
  (bn1): BatchNorm2d(16, eps=1e-05, momentum=0.1, affine=True, track_running_stats=True)
  (conv3): Conv2d(16, 32, kernel_size=(3, 3), stride=(1, 1), padding=(1, 1))
  (conv4): Conv2d(32, 32, kernel_size=(3, 3), stride=(1, 1), padding=(1, 1))
  (bn2): BatchNorm2d(32, eps=1e-05, momentum=0.1, affine=True, track_running_stats=True)
  (conv5): Conv2d(32, 64, kernel_size=(3, 3), stride=(1, 1), padding=(1, 1))
  (conv6): Conv2d(64, 64, kernel_size=(3, 3), stride=(1, 1), padding=(1, 1))
  (bn3): BatchNorm2d(64, eps=1e-05, momentum=0.1, affine=True, track_running_stats=True)
  (dropout1): Dropout(p=0.1, inplace=False)
  (fc1): Linear(in_features=16384, out_features=1, bias=True)
  (fc2): Linear(in_features=256, out_features=1, bias=True)
  (pool): MaxPool2d(kernel_size=2, stride=2, padding=0, dilation=1, ceil_mode=False)
)
--
Experiment Parameters:
Loss Func: L1 - Closed/Open: Closed - Batch Size: 64 - Epochs: 300 - Learning Rate: 0.002
--
Epoch [1/300] - 0.5571/0.2251/0.5571/0.2251
Epoch [2/300] - 0.0103/14.7061/0.0103/14.7061
Epoch [3/300] - 0.0109/7.4737/0.0109/7.4737
Epoch [4/300] - 0.0088/7.9623/0.0088/7.9623
…
