…
Training loss for epoch 299: 0.002246
Average error with expected training values: 0.002245732583105564
Starting validation for epoch 299
Validation loss for epoch 299: 0.002188
Average error with expected validation values: 0.0021878296975046396
Starting training for epoch 300
Training loss for epoch 300: 0.002264
Average error with expected training values: 0.002263574628159404
Starting validation for epoch 300
Validation loss for epoch 300: 0.002058
Average error with expected validation values: 0.002058069920167327
Finished Training
Average error with expected test values: 1.6378023624420166
Model4(
  (conv1): Conv2d(1, 16, kernel_size=(3, 3), stride=(2, 2), padding=(1, 1))
  (conv2): Conv2d(16, 16, kernel_size=(3, 3), stride=(1, 1), padding=(1, 1))
  (conv3): Conv2d(16, 32, kernel_size=(3, 3), stride=(1, 1), padding=(1, 1))
  (conv4): Conv2d(32, 32, kernel_size=(3, 3), stride=(1, 1), padding=(1, 1))
  (pool): MaxPool2d(kernel_size=2, stride=2, padding=0, dilation=1, ceil_mode=False)
  (fc11): Linear(in_features=512, out_features=1, bias=True)
)
Starting training for epoch 1
Training loss for epoch  1: 0.004604
Average error with expected training values: 0.004603514913469553
Starting validation for epoch 1
Validation loss for epoch  1: 0.003304
Average error with expected validation values: 0.003304204670712352
Starting training for epoch 2
Training loss for epoch  2: 0.003579
Average error with expected training values: 0.003579040290787816
…
Training loss for epoch 299: 0.002114
Average error with expected training values: 0.002113677328452468
Starting validation for epoch 299
Validation loss for epoch 299: 0.001919
Average error with expected validation values: 0.0019188867881894112
Starting training for epoch 300
Training loss for epoch 300: 0.002129
Average error with expected training values: 0.002128762658685446
Starting validation for epoch 300
Validation loss for epoch 300: 0.001980
Average error with expected validation values: 0.001979661639779806
Finished Training
Average error with expected test values: 1.6372019052505493
Model5(
  (conv1): Conv2d(1, 16, kernel_size=(3, 3), stride=(2, 2), padding=(1, 1))
  (conv2): Conv2d(16, 16, kernel_size=(3, 3), stride=(1, 1), padding=(1, 1))
  (conv3): Conv2d(16, 32, kernel_size=(3, 3), stride=(1, 1), padding=(1, 1))
  (conv4): Conv2d(32, 32, kernel_size=(3, 3), stride=(1, 1), padding=(1, 1))
  (conv5): Conv2d(32, 32, kernel_size=(3, 3), stride=(1, 1), padding=(1, 1))
  (pool): MaxPool2d(kernel_size=2, stride=2, padding=0, dilation=1, ceil_mode=False)
  (fc11): Linear(in_features=128, out_features=1, bias=True)
)
Starting training for epoch 1
Training loss for epoch  1: 0.004644
Average error with expected training values: 0.004644449800252914
Starting validation for epoch 1
Validation loss for epoch  1: 0.003269
Average error with expected validation values: 0.0032687003258615732
Starting training for epoch 2
Training loss for epoch  2: 0.003705
Average error with expected training values: 0.0037051925901323557
…
Training loss for epoch 299: 0.001863
Average error with expected training values: 0.0018628668040037155
Starting validation for epoch 299
Validation loss for epoch 299: 0.002031
Average error with expected validation values: 0.0020313335116952658
Starting training for epoch 300
Training loss for epoch 300: 0.001851
Average error with expected training values: 0.0018506709020584822
Starting validation for epoch 300
Validation loss for epoch 300: 0.002010
Average error with expected validation values: 0.0020102732814848423
Finished Training
Average error with expected test values: 1.6575435400009155
Model6(
  (conv1): Conv2d(1, 16, kernel_size=(3, 3), stride=(2, 2), padding=(1, 1))
  (conv2): Conv2d(16, 16, kernel_size=(3, 3), stride=(1, 1), padding=(1, 1))
  (conv3): Conv2d(16, 32, kernel_size=(3, 3), stride=(1, 1), padding=(1, 1))
  (conv4): Conv2d(32, 32, kernel_size=(3, 3), stride=(1, 1), padding=(1, 1))
  (conv5): Conv2d(32, 32, kernel_size=(3, 3), stride=(1, 1), padding=(1, 1))
  (conv6): Conv2d(32, 32, kernel_size=(3, 3), stride=(1, 1), padding=(1, 1))
  (pool): MaxPool2d(kernel_size=2, stride=2, padding=0, dilation=1, ceil_mode=False)
  (fc11): Linear(in_features=2048, out_features=1, bias=True)
)
Starting training for epoch 1
Training loss for epoch  1: 0.005352
Average error with expected training values: 0.005352352280169725
Starting validation for epoch 1
Validation loss for epoch  1: 0.004527
Average error with expected validation values: 0.004526734817773104
Starting training for epoch 2
Training loss for epoch  2: 0.003768
Average error with expected training values: 0.003767710644751787
…
Training loss for epoch 299: 0.001881
Average error with expected training values: 0.0018808819586411119
Starting validation for epoch 299
Validation loss for epoch 299: 0.001925
Average error with expected validation values: 0.001924621406942606
Starting training for epoch 300
Training loss for epoch 300: 0.001908
Average error with expected training values: 0.001907674944959581
Starting validation for epoch 300
Validation loss for epoch 300: 0.001879
Average error with expected validation values: 0.0018792175687849522
Finished Training
Average error with expected test values: 1.654398798942566
Model7(
  (conv1): Conv2d(1, 16, kernel_size=(3, 3), stride=(2, 2), padding=(1, 1))
  (conv2): Conv2d(16, 16, kernel_size=(3, 3), stride=(1, 1), padding=(1, 1))
  (conv3): Conv2d(16, 32, kernel_size=(3, 3), stride=(1, 1), padding=(1, 1))
  (conv4): Conv2d(32, 32, kernel_size=(3, 3), stride=(1, 1), padding=(1, 1))
  (conv5): Conv2d(32, 32, kernel_size=(3, 3), stride=(1, 1), padding=(1, 1))
  (conv6): Conv2d(32, 32, kernel_size=(3, 3), stride=(1, 1), padding=(1, 1))
  (conv7): Conv2d(32, 32, kernel_size=(3, 3), stride=(1, 1), padding=(1, 1))
  (pool): MaxPool2d(kernel_size=2, stride=2, padding=0, dilation=1, ceil_mode=False)
  (fc11): Linear(in_features=512, out_features=1, bias=True)
)
Starting training for epoch 1
Training loss for epoch  1: 0.007161
Average error with expected training values: 0.007161034736782312
Starting validation for epoch 1
Validation loss for epoch  1: 0.003870
Average error with expected validation values: 0.00386963807977736
Starting training for epoch 2
Training loss for epoch  2: 0.003939
Average error with expected training values: 0.003938896115869284
…
Training loss for epoch 299: 0.001895
Average error with expected training values: 0.0018946216441690922
Starting validation for epoch 299
Validation loss for epoch 299: 0.001815
Average error with expected validation values: 0.0018152842530980706
Starting training for epoch 300
Training loss for epoch 300: 0.001880
Average error with expected training values: 0.0018799429526552558
Starting validation for epoch 300
Validation loss for epoch 300: 0.001753
Average error with expected validation values: 0.0017526554875075817
Finished Training
Average error with expected test values: 1.6393423080444336
Model8(
  (conv1): Conv2d(1, 16, kernel_size=(3, 3), stride=(2, 2), padding=(1, 1))
  (conv2): Conv2d(16, 16, kernel_size=(3, 3), stride=(1, 1), padding=(1, 1))
  (conv3): Conv2d(16, 32, kernel_size=(3, 3), stride=(1, 1), padding=(1, 1))
  (conv4): Conv2d(32, 32, kernel_size=(3, 3), stride=(1, 1), padding=(1, 1))
  (conv5): Conv2d(32, 32, kernel_size=(3, 3), stride=(1, 1), padding=(1, 1))
  (conv6): Conv2d(32, 32, kernel_size=(3, 3), stride=(1, 1), padding=(1, 1))
  (conv7): Conv2d(32, 32, kernel_size=(3, 3), stride=(1, 1), padding=(1, 1))
  (conv8): Conv2d(32, 32, kernel_size=(3, 3), stride=(1, 1), padding=(1, 1))
  (pool): MaxPool2d(kernel_size=2, stride=2, padding=0, dilation=1, ceil_mode=False)
  (fc11): Linear(in_features=512, out_features=1, bias=True)
)
Starting training for epoch 1
Training loss for epoch  1: 0.005537
Average error with expected training values: 0.005537392105907202
Starting validation for epoch 1
Validation loss for epoch  1: 0.003145
Average error with expected validation values: 0.0031453294213861227
Starting training for epoch 2
Training loss for epoch  2: 0.003590
Average error with expected training values: 0.0035898317582905293
…
