…
Training loss for epoch 299: 0.002345
Average error with expected training values: 0.002345240442082286
Starting validation for epoch 299
Validation loss for epoch 299: 0.002250
Average error with expected validation values: 0.0022498411126434803
Starting training for epoch 300
Training loss for epoch 300: 0.002344
Average error with expected training values: 0.0023442720994353294
Starting validation for epoch 300
Validation loss for epoch 300: 0.002550
Average error with expected validation values: 0.002549925819039345
Finished Training
Average error with expected test values: 1.6716824769973755
Model4(
  (conv1): Conv2d(1, 16, kernel_size=(3, 3), stride=(2, 2), padding=(1, 1))
  (conv2): Conv2d(16, 16, kernel_size=(3, 3), stride=(1, 1), padding=(1, 1))
  (conv3): Conv2d(16, 32, kernel_size=(3, 3), stride=(1, 1), padding=(1, 1))
  (conv4): Conv2d(32, 32, kernel_size=(3, 3), stride=(1, 1), padding=(1, 1))
  (pool): MaxPool2d(kernel_size=2, stride=2, padding=0, dilation=1, ceil_mode=False)
  (fc11): Linear(in_features=512, out_features=1, bias=True)
)
Starting training for epoch 1
Training loss for epoch  1: 0.004696
Average error with expected training values: 0.004695496987551451
Starting validation for epoch 1
Validation loss for epoch  1: 0.004783
Average error with expected validation values: 0.004783182870596647
Starting training for epoch 2
Training loss for epoch  2: 0.003761
Average error with expected training values: 0.0037612938322126865
…
Training loss for epoch 299: 0.002100
Average error with expected training values: 0.0021002725698053837
Starting validation for epoch 299
Validation loss for epoch 299: 0.002191
Average error with expected validation values: 0.0021908690687268972
Starting training for epoch 300
Training loss for epoch 300: 0.002125
Average error with expected training values: 0.002124798484146595
Starting validation for epoch 300
Validation loss for epoch 300: 0.002286
Average error with expected validation values: 0.002286301925778389
Finished Training
Average error with expected test values: 1.6500436067581177
Model5(
  (conv1): Conv2d(1, 16, kernel_size=(3, 3), stride=(2, 2), padding=(1, 1))
  (conv2): Conv2d(16, 16, kernel_size=(3, 3), stride=(1, 1), padding=(1, 1))
  (conv3): Conv2d(16, 32, kernel_size=(3, 3), stride=(1, 1), padding=(1, 1))
  (conv4): Conv2d(32, 32, kernel_size=(3, 3), stride=(1, 1), padding=(1, 1))
  (conv5): Conv2d(32, 32, kernel_size=(3, 3), stride=(1, 1), padding=(1, 1))
  (pool): MaxPool2d(kernel_size=2, stride=2, padding=0, dilation=1, ceil_mode=False)
  (fc11): Linear(in_features=128, out_features=1, bias=True)
)
Starting training for epoch 1
Training loss for epoch  1: 0.004876
Average error with expected training values: 0.004876274149864912
Starting validation for epoch 1
Validation loss for epoch  1: 0.003467
Average error with expected validation values: 0.0034674692433327436
Starting training for epoch 2
Training loss for epoch  2: 0.003796
Average error with expected training values: 0.0037956354208290577
…
Training loss for epoch 299: 0.001790
Average error with expected training values: 0.0017898395890370011
Starting validation for epoch 299
Validation loss for epoch 299: 0.001647
Average error with expected validation values: 0.0016474078875035048
Starting training for epoch 300
Training loss for epoch 300: 0.001785
Average error with expected training values: 0.001785487518645823
Starting validation for epoch 300
Validation loss for epoch 300: 0.001992
Average error with expected validation values: 0.0019921937491744757
Finished Training
Average error with expected test values: 1.6754508018493652
Model6(
  (conv1): Conv2d(1, 16, kernel_size=(3, 3), stride=(2, 2), padding=(1, 1))
  (conv2): Conv2d(16, 16, kernel_size=(3, 3), stride=(1, 1), padding=(1, 1))
  (conv3): Conv2d(16, 32, kernel_size=(3, 3), stride=(1, 1), padding=(1, 1))
  (conv4): Conv2d(32, 32, kernel_size=(3, 3), stride=(1, 1), padding=(1, 1))
  (conv5): Conv2d(32, 32, kernel_size=(3, 3), stride=(1, 1), padding=(1, 1))
  (conv6): Conv2d(32, 32, kernel_size=(3, 3), stride=(1, 1), padding=(1, 1))
  (pool): MaxPool2d(kernel_size=2, stride=2, padding=0, dilation=1, ceil_mode=False)
  (fc11): Linear(in_features=2048, out_features=1, bias=True)
)
Starting training for epoch 1
Training loss for epoch  1: 0.005400
Average error with expected training values: 0.005400383844971657
Starting validation for epoch 1
Validation loss for epoch  1: 0.003609
Average error with expected validation values: 0.0036088330671191216
Starting training for epoch 2
Training loss for epoch  2: 0.004077
Average error with expected training values: 0.00407715467736125
…
Training loss for epoch 299: 0.002068
Average error with expected training values: 0.002067678840830922
Starting validation for epoch 299
Validation loss for epoch 299: 0.001915
Average error with expected validation values: 0.0019147566054016352
Starting training for epoch 300
Training loss for epoch 300: 0.002093
Average error with expected training values: 0.002093253657221794
Starting validation for epoch 300
Validation loss for epoch 300: 0.002127
Average error with expected validation values: 0.0021268590353429317
Finished Training
Average error with expected test values: 1.6566911935806274
Model7(
  (conv1): Conv2d(1, 16, kernel_size=(3, 3), stride=(2, 2), padding=(1, 1))
  (conv2): Conv2d(16, 16, kernel_size=(3, 3), stride=(1, 1), padding=(1, 1))
  (conv3): Conv2d(16, 32, kernel_size=(3, 3), stride=(1, 1), padding=(1, 1))
  (conv4): Conv2d(32, 32, kernel_size=(3, 3), stride=(1, 1), padding=(1, 1))
  (conv5): Conv2d(32, 32, kernel_size=(3, 3), stride=(1, 1), padding=(1, 1))
  (conv6): Conv2d(32, 32, kernel_size=(3, 3), stride=(1, 1), padding=(1, 1))
  (conv7): Conv2d(32, 32, kernel_size=(3, 3), stride=(1, 1), padding=(1, 1))
  (pool): MaxPool2d(kernel_size=2, stride=2, padding=0, dilation=1, ceil_mode=False)
  (fc11): Linear(in_features=512, out_features=1, bias=True)
)
Starting training for epoch 1
Training loss for epoch  1: 0.005364
Average error with expected training values: 0.005363951437175274
Starting validation for epoch 1
Validation loss for epoch  1: 0.004355
Average error with expected validation values: 0.004354618955403566
Starting training for epoch 2
Training loss for epoch  2: 0.004046
Average error with expected training values: 0.004046252928674221
…
Training loss for epoch 299: 0.001869
Average error with expected training values: 0.0018689214484766126
Starting validation for epoch 299
Validation loss for epoch 299: 0.001925
Average error with expected validation values: 0.0019251842750236392
Starting training for epoch 300
Training loss for epoch 300: 0.001877
Average error with expected training values: 0.00187680684030056
Starting validation for epoch 300
Validation loss for epoch 300: 0.001667
Average error with expected validation values: 0.0016670204931870103
Finished Training
Average error with expected test values: 1.6543023586273193
Model8(
  (conv1): Conv2d(1, 16, kernel_size=(3, 3), stride=(2, 2), padding=(1, 1))
  (conv2): Conv2d(16, 16, kernel_size=(3, 3), stride=(1, 1), padding=(1, 1))
  (conv3): Conv2d(16, 32, kernel_size=(3, 3), stride=(1, 1), padding=(1, 1))
  (conv4): Conv2d(32, 32, kernel_size=(3, 3), stride=(1, 1), padding=(1, 1))
  (conv5): Conv2d(32, 32, kernel_size=(3, 3), stride=(1, 1), padding=(1, 1))
  (conv6): Conv2d(32, 32, kernel_size=(3, 3), stride=(1, 1), padding=(1, 1))
  (conv7): Conv2d(32, 32, kernel_size=(3, 3), stride=(1, 1), padding=(1, 1))
  (conv8): Conv2d(32, 32, kernel_size=(3, 3), stride=(1, 1), padding=(1, 1))
  (pool): MaxPool2d(kernel_size=2, stride=2, padding=0, dilation=1, ceil_mode=False)
  (fc11): Linear(in_features=512, out_features=1, bias=True)
)
Starting training for epoch 1
Training loss for epoch  1: 0.006230
Average error with expected training values: 0.006230419501662254
Starting validation for epoch 1
Validation loss for epoch  1: 0.003800
Average error with expected validation values: 0.0038002210203558207
Starting training for epoch 2
Training loss for epoch  2: 0.004001
Average error with expected training values: 0.004000876564532518
…
