Model(
  (conv1): Conv2d(1, 8, kernel_size=(3, 3), stride=(1, 1), padding=(1, 1))
  (conv2): Conv2d(32, 64, kernel_size=(3, 3), stride=(1, 1), padding=(1, 1))
  (fc1): Linear(in_features=8, out_features=1024, bias=True)
  (fc2): Linear(in_features=1024, out_features=10, bias=True)
  (pool): MaxPool2d(kernel_size=2, stride=2, padding=0, dilation=1, ceil_mode=False)
  (fc11): Linear(in_features=16384, out_features=128, bias=True)
  (fc12): Linear(in_features=128, out_features=64, bias=True)
  (fc13): Linear(in_features=64, out_features=16, bias=True)
)
Starting training for epoch 1
Training loss for epoch  1: 0.566577
Accuracy of the network on the training images: 76 %
Starting validation for epoch 1
Validation loss for epoch  1: 0.425698
Accuracy of the network on the validation images: 82 %
Starting training for epoch 2
Training loss for epoch  2: 0.389251
Accuracy of the network on the training images: 83 %
…
Accuracy of the network on the validation images: 90 %
Starting training for epoch 299
Training loss for epoch 299: 0.164309
Accuracy of the network on the training images: 93 %
Starting validation for epoch 299
Validation loss for epoch 299: 0.234795
Accuracy of the network on the validation images: 91 %
Starting training for epoch 300
Training loss for epoch 300: 0.164412
Accuracy of the network on the training images: 93 %
Starting validation for epoch 300
Validation loss for epoch 300: 0.190683
Accuracy of the network on the validation images: 92 %
Finished Training
Accuracy of the network on the test images: 92.84375 %
Model4(
  (conv1): Conv2d(1, 16, kernel_size=(3, 3), stride=(2, 2), padding=(1, 1))
  (conv2): Conv2d(16, 16, kernel_size=(3, 3), stride=(1, 1), padding=(1, 1))
  (conv3): Conv2d(16, 32, kernel_size=(3, 3), stride=(1, 1), padding=(1, 1))
  (conv4): Conv2d(32, 32, kernel_size=(3, 3), stride=(1, 1), padding=(1, 1))
  (pool): MaxPool2d(kernel_size=2, stride=2, padding=0, dilation=1, ceil_mode=False)
  (fc11): Linear(in_features=512, out_features=16, bias=True)
)
Starting training for epoch 1
Training loss for epoch  1: 0.754578
Accuracy of the network on the training images: 67 %
Starting validation for epoch 1
Validation loss for epoch  1: 0.563881
Accuracy of the network on the validation images: 74 %
Starting training for epoch 2
Training loss for epoch  2: 0.574739
Accuracy of the network on the training images: 74 %
…
Accuracy of the network on the validation images: 91 %
Starting training for epoch 299
Training loss for epoch 299: 0.136485
Accuracy of the network on the training images: 94 %
Starting validation for epoch 299
Validation loss for epoch 299: 0.302780
Accuracy of the network on the validation images: 89 %
Starting training for epoch 300
Training loss for epoch 300: 0.135037
Accuracy of the network on the training images: 94 %
Starting validation for epoch 300
Validation loss for epoch 300: 0.304756
Accuracy of the network on the validation images: 90 %
Finished Training
Accuracy of the network on the test images: 89.93125 %
Model5(
  (conv1): Conv2d(1, 16, kernel_size=(3, 3), stride=(2, 2), padding=(1, 1))
  (conv2): Conv2d(16, 16, kernel_size=(3, 3), stride=(1, 1), padding=(1, 1))
  (conv3): Conv2d(16, 32, kernel_size=(3, 3), stride=(1, 1), padding=(1, 1))
  (conv4): Conv2d(32, 32, kernel_size=(3, 3), stride=(1, 1), padding=(1, 1))
  (conv5): Conv2d(32, 32, kernel_size=(3, 3), stride=(1, 1), padding=(1, 1))
  (pool): MaxPool2d(kernel_size=2, stride=2, padding=0, dilation=1, ceil_mode=False)
  (fc11): Linear(in_features=128, out_features=16, bias=True)
)
Starting training for epoch 1
Training loss for epoch  1: 0.746685
Accuracy of the network on the training images: 67 %
Starting validation for epoch 1
Validation loss for epoch  1: 0.888517
Accuracy of the network on the validation images: 61 %
Starting training for epoch 2
Training loss for epoch  2: 0.561922
Accuracy of the network on the training images: 75 %
…
Accuracy of the network on the validation images: 89 %
Starting training for epoch 299
Training loss for epoch 299: 0.150163
Accuracy of the network on the training images: 93 %
Starting validation for epoch 299
Validation loss for epoch 299: 0.359088
Accuracy of the network on the validation images: 87 %
Starting training for epoch 300
Training loss for epoch 300: 0.151939
Accuracy of the network on the training images: 93 %
Starting validation for epoch 300
Validation loss for epoch 300: 0.255649
Accuracy of the network on the validation images: 90 %
Finished Training
Accuracy of the network on the test images: 91.11875 %
Model6(
  (conv1): Conv2d(1, 16, kernel_size=(3, 3), stride=(2, 2), padding=(1, 1))
  (conv2): Conv2d(16, 16, kernel_size=(3, 3), stride=(1, 1), padding=(1, 1))
  (conv3): Conv2d(16, 32, kernel_size=(3, 3), stride=(1, 1), padding=(1, 1))
  (conv4): Conv2d(32, 32, kernel_size=(3, 3), stride=(1, 1), padding=(1, 1))
  (conv5): Conv2d(32, 32, kernel_size=(3, 3), stride=(1, 1), padding=(1, 1))
  (conv6): Conv2d(32, 32, kernel_size=(3, 3), stride=(1, 1), padding=(1, 1))
  (pool): MaxPool2d(kernel_size=2, stride=2, padding=0, dilation=1, ceil_mode=False)
  (fc11): Linear(in_features=2048, out_features=16, bias=True)
)
Starting training for epoch 1
Training loss for epoch  1: 0.783682
Accuracy of the network on the training images: 66 %
Starting validation for epoch 1
Validation loss for epoch  1: 0.524875
Accuracy of the network on the validation images: 76 %
Starting training for epoch 2
Training loss for epoch  2: 0.572619
Accuracy of the network on the training images: 74 %
…
Accuracy of the network on the validation images: 91 %
Starting training for epoch 299
Training loss for epoch 299: 0.135495
Accuracy of the network on the training images: 94 %
Starting validation for epoch 299
Validation loss for epoch 299: 0.274372
Accuracy of the network on the validation images: 91 %
Starting training for epoch 300
Training loss for epoch 300: 0.131903
Accuracy of the network on the training images: 94 %
Starting validation for epoch 300
Validation loss for epoch 300: 0.280292
Accuracy of the network on the validation images: 91 %
Finished Training
Accuracy of the network on the test images: 91.46875 %
Model7(
  (conv1): Conv2d(1, 16, kernel_size=(3, 3), stride=(2, 2), padding=(1, 1))
  (conv2): Conv2d(16, 16, kernel_size=(3, 3), stride=(1, 1), padding=(1, 1))
  (conv3): Conv2d(16, 32, kernel_size=(3, 3), stride=(1, 1), padding=(1, 1))
  (conv4): Conv2d(32, 32, kernel_size=(3, 3), stride=(1, 1), padding=(1, 1))
  (conv5): Conv2d(32, 32, kernel_size=(3, 3), stride=(1, 1), padding=(1, 1))
  (conv6): Conv2d(32, 32, kernel_size=(3, 3), stride=(1, 1), padding=(1, 1))
  (conv7): Conv2d(32, 32, kernel_size=(3, 3), stride=(1, 1), padding=(1, 1))
  (pool): MaxPool2d(kernel_size=2, stride=2, padding=0, dilation=1, ceil_mode=False)
  (fc11): Linear(in_features=512, out_features=16, bias=True)
)
Starting training for epoch 1
Training loss for epoch  1: 0.758165
Accuracy of the network on the training images: 67 %
Starting validation for epoch 1
Validation loss for epoch  1: 0.492752
Accuracy of the network on the validation images: 78 %
Starting training for epoch 2
Training loss for epoch  2: 0.560614
Accuracy of the network on the training images: 75 %
…
Accuracy of the network on the validation images: 93 %
Starting training for epoch 299
Training loss for epoch 299: 0.114118
Accuracy of the network on the training images: 95 %
Starting validation for epoch 299
Validation loss for epoch 299: 0.223216
Accuracy of the network on the validation images: 92 %
Starting training for epoch 300
Training loss for epoch 300: 0.109529
Accuracy of the network on the training images: 95 %
Starting validation for epoch 300
Validation loss for epoch 300: 0.182116
Accuracy of the network on the validation images: 93 %
Finished Training
Accuracy of the network on the test images: 93.7875 %
Model8(
  (conv1): Conv2d(1, 16, kernel_size=(3, 3), stride=(2, 2), padding=(1, 1))
  (conv2): Conv2d(16, 16, kernel_size=(3, 3), stride=(1, 1), padding=(1, 1))
  (conv3): Conv2d(16, 32, kernel_size=(3, 3), stride=(1, 1), padding=(1, 1))
  (conv4): Conv2d(32, 32, kernel_size=(3, 3), stride=(1, 1), padding=(1, 1))
  (conv5): Conv2d(32, 32, kernel_size=(3, 3), stride=(1, 1), padding=(1, 1))
  (conv6): Conv2d(32, 32, kernel_size=(3, 3), stride=(1, 1), padding=(1, 1))
  (conv7): Conv2d(32, 32, kernel_size=(3, 3), stride=(1, 1), padding=(1, 1))
  (conv8): Conv2d(32, 32, kernel_size=(3, 3), stride=(1, 1), padding=(1, 1))
  (pool): MaxPool2d(kernel_size=2, stride=2, padding=0, dilation=1, ceil_mode=False)
  (fc11): Linear(in_features=512, out_features=16, bias=True)
)
Starting training for epoch 1
Training loss for epoch  1: 0.882141
Accuracy of the network on the training images: 62 %
Starting validation for epoch 1
Validation loss for epoch  1: 0.542221
Accuracy of the network on the validation images: 76 %
Starting training for epoch 2
Training loss for epoch  2: 0.576975
Accuracy of the network on the training images: 74 %
…
